checkpoint_actor.pth (torch_old, 89177 bytes, 10 tensors)

fc1.weight f4 [128, 33]
000000 01 b9 35 bd 4d b1 0f 3e 6e cc f2 bd 4a 96 6f bd
       -0.044365887 0.14032479 -0.11855398 -0.058492936
000010 22 f5 4d 3d a2 6f 63 3e c3 6d 5a be 89 eb 79 3c
       0.050282605 0.22210553 -0.21330933 0.01525391
000020 1f 80 80 be 6a 4d 2d 3d 89 62 a8 3b 9f cf c8 bc
       -0.2509775 0.042310156 0.0051386994 -0.024513064
000030 35 9b 84 bb a2 ce 84 bd e1 d3 f4 bb 6d 62 90 3c
       -0.0040468224 -0.064847246 -0.007471547 0.017625058
000040 b2 8f 5f bd d8 7c 4d 3c e0 d8 2d be bb 95 31 3e
       -0.054580398 0.012541972 -0.16977262 0.17342274
000050 36 86 29 3d ee 11 cb bd 9b 90 72 bd d6 d0 a6 bc
       0.04138776 -0.09915529 -0.059219938 -0.020363253
000060 7a 87 79 3c 08 73 83 bc d7 c2 ff 3d 7d 5c 0a ba
       0.015230054 -0.016046062 0.124883346 -0.0005278064
000070 b2 bc 6f 3d a4 73 eb 3c 12 c4 66 bd 52 86 e1 bc
       0.058529563 0.028741665 -0.05633933 -0.02752987
000080 9a 4f 3d bf f4 cd bb bd e1 8f bf 3d c1 30 94 bd
       -0.7394959 -0.09170142 0.093536146 -0.072358616
000090 21 36 7f 3d 29 55 1a 3e 90 d2 2b bd da 8d c9 3a
       0.06230748 0.15071549 -0.041948855 0.0015377358
0000a0 f7 56 b8 bc 9b 58 79 bd af 5f 91 bc 0a 40 95 bc
       -0.022502406 -0.060875516 -0.01774582 -0.018219013
0000b0 60 e6 da 3b 1b d7 77 bc 8d 9a 8b 3d a9 da 9c bc
       0.006680295 -0.015126969 0.068165876 -0.019147234
0000c0 e6 8e b2 3d f1 6a 25 be 91 1f 09 3e bb ba 68 3d
       0.08718662 -0.16154076 0.13390948 0.056818705
0000d0 98 2b 14 be 0f c3 14 bb 17 32 f3 3b 56 e8 9c 3c
       -0.14469755 -0.0022699272 0.0074217427 0.019153755
0000e0 0b c4 36 3d db ab af 3b b7 27 53 3b cc 4e 90 bc
       0.044620555 0.005361063 0.0032219717 -0.017615698
0000f0 83 cc 02 3e f3 39 a5 bd de d2 a4 bd 5b 06 5a be
       0.12773328 -0.080676936 -0.08048032 -0.21291487
000100 8c 80 a8 3c c6 71 85 3f 8b 86 32 be 98 e5 41 3d
       0.020569108 1.0425346 -0.17434137 0.0473381
000110 ef 84 9f 3d f4 fc a9 bc b1 b4 8f be ff 1f 0a 3d
       0.07789027 -0.0207505 -0.28067544 0.03372192
000120 ac bb de bd 97 01 e6 3b 79 02 d2 bd d2 50 0b be
       -0.10875639 0.0070192325 -0.10254378 -0.13605049
000130 f5 0d b2 bd 35 51 b2 bc e1 9b fa 3a aa 60 09 be
       -0.08694068 -0.021767238 0.0019119942 -0.1341578
000140 7f c9 b8 bc 7a cb e5 bd c7 a0 a4 be 16 40 8a 3e
       -0.022557018 -0.11220451 -0.32153913 0.2700202
000150 5b b1 71 bd 41 90 dd bd 70 4a 6e bb 65 ee a4 3d
       -0.05900703 -0.1081853 -0.0036360286 0.08053283
000160 4a b8 1a bd 62 c0 e5 bd 34 d0 49 3d fc 04 8e bd
       -0.037773408 -0.11218335 0.049270824 -0.069345444
000170 1c 57 ca 3d 88 99 25 3e c3 d3 07 be 12 ae 56 3d
       0.09879896 0.16171849 -0.13264374 0.0524121
000180 aa 4b 13 be 92 d3 e1 bc c1 ef 1f be 0b e1 f8 3c
       -0.14384332 -0.027566705 -0.15618803 0.030380746
000190 fa 71 a4 bc d4 32 37 bd 6f 58 b9 3e 6b 23 dc 3c
       -0.02007388 -0.044726208 0.36200282 0.026872357
0001a0 e5 d9 5b 3e aa 2c 59 3e 6e c2 0a bd 02 e0 58 bd
       0.21469839 0.21208444 -0.03387683 -0.052948005
0001b0 e5 0b fb 3b b0 0e 8d bc 8c 00 8e bd cd 4b a0 3d
       0.00766133 -0.017218918 -0.06933698 0.07826958
0001c0 f8 59 7c 3c 18 18 8b 3d 87 41 c0 3b 10 e4 9b 3d
       0.01540231 0.06791705 0.0058671865 0.07611859
0001d0 b0 e6 be be be cd 6a bc aa e5 29 bd 31 a1 09 3c
       -0.37285376 -0.014331279 -0.04147879 0.008400247
0001e0 0d 50 46 bd 1d b7 18 bd bf a6 b0 3c 93 44 f4 ba
       -0.048416186 -0.037284005 0.021563886 -0.0018636159
0001f0 c9 d2 ec 3d 45 f1 17 3c 5f b3 46 3e f4 a0 3e 3e
       0.115636416 0.009273832 0.19404362 0.18616086
000200 a2 09 6c 3d 0b 44 27 be 28 6c aa bc cc eb bb 3e
       0.057626374 -0.1633455 -0.020803526 0.36703336
000210 b8 14 cc bd 7c 35 c0 bd 16 05 3c 3e a5 8c 4e 3d
       -0.09964889 -0.09385201 0.18361315 0.050427098
000220 97 f5 05 be a3 43 c1 be 61 d4 72 3e 1a 87 f4 3b
       -0.13081966 -0.37746915 0.23713829 0.0074623944
000230 ff 11 f0 3d 3a 9e 3c bd 19 75 a9 3b d3 64 ca bc
       0.117221825 -0.046049334 0.00517143 -0.02470628
000240 1c 34 26 3c 56 e0 38 3d df 3c f7 bb a1 1f b4 bd
       0.01014426 0.04513582 -0.007545098 -0.08795095
000250 42 49 eb 3b 88 8a 5f 36 01 01 9a 3d 5d 28 bc bd
       0.007180364 3.3310225e-06 0.07519723 -0.09187386
000260 ea b8 55 3b fc de c7 bb 9f 57 f4 bc 09 0b 24 3d
       0.0032611438 -0.00609958 -0.029826937 0.040049586
000270 25 a5 b2 3b 0b 26 31 bd 71 33 5e bd a8 c8 d0 3d
       0.0054518157 -0.04324917 -0.054248277 0.10194522
000280 a3 12 91 bd 98 84 8d bc 13 b9 2a be fe 93 4f 3d
       -0.07083633 -0.01727514 -0.16672163 0.050678246
000290 84 1e 4b 3f 65 81 a7 bd 6c ba 11 be f0 59 66 bc
       0.7934344 -0.08178977 -0.1423127 -0.014059529
0002a0 73 dd b0 bc 51 c7 30 be 51 51 9d be 47 8f 16 3e
       -0.02158997 -0.17263533 -0.30726102 0.14703093
0002b0 64 00 4e 3a 2f 08 6f bc 0e 6c 3a 3b db ee df bc
       0.00078583346 -0.014589353 0.0028445753 -0.027335575
0002c0 b6 16 08 bd e2 b5 3b 3c 06 8b b6 3d f8 84 5c 3d
       -0.033224784 0.011456938 0.08913235 0.053837746
0002d0 e7 6c e0 3c 72 12 a8 3c 28 4a 83 3d 9c d3 94 3e
       0.027395679 0.020516608 0.064106286 0.29067695
0002e0 33 51 0e 3d 48 86 7b 3b 19 fa ad bc c6 3a d6 3a
       0.034745406 0.0038379598 -0.02123742 0.001634442
0002f0 a1 5f 51 3d fc 3f 06 3c 66 2b ce 3c 01 da 02 3c
       0.05111659 0.008193966 0.025167178 0.0079865465
000300 4a 2c b1 3d 82 06 52 3b 17 f9 3b bd 88 5a fa bd
       0.086510256 0.0032047336 -0.045891847 -0.12224299
000310 56 ca 16 3d 95 8e 6c bf 79 cf 0d bc 8e a4 c6 bd
       0.036814056 -0.9240506 -0.008655422 -0.09699355
000320 5c e8 1f bc b8 d8 a1 be 33 dd c3 be 84 4c 80 be
       -0.009759989 -0.31610656 -0.382547 -0.25058377
000330 0d 81 15 bd 5f 26 db 3d fb 79 f7 bd 87 38 08 3d
       -0.036500026 0.10700678 -0.12083813 0.033257034
000340 bf a2 18 bd aa 5a 05 3d a7 62 40 39 cf ed e8 3d
       -0.03726458 0.032557167 0.00018347298 0.113734834
000350 04 e9 7a 3d 6c 91 f0 3d 78 a2 84 bc 5d e3 7b 3d
       0.061257377 0.11746487 -0.016190752 0.061496127
000360 31 7a 83 be e6 85 8b 3e 8f bd 70 bd 84 36 1b 3d
       -0.25679162 0.27250594 -0.058774527 0.037893787
000370 db b1 db bb c1 fa 62 3d ac 3d 99 bc 2e 14 9b 3c
       -0.0067045516 0.05541492 -0.018706165 0.01893052
000380 cb a0 d0 bd a3 d6 27 3e 1f 02 1c be bc bd 09 bd
       -0.10186919 0.16390471 -0.15235184 -0.03362821
000390 c1 a4 3f be 14 37 a8 bd 39 5f b9 bd 2b 4f 8e 3d
       -0.18715192 -0.0821363 -0.090513654 0.06948694
0003a0 d8 43 95 3c 20 fc cc bd fb 92 5b be 49 71 cf bd
       0.018220827 -0.100090265 -0.21442787 -0.10129029
0003b0 a6 5d b8 bd 0f d1 df 3d bc 25 13 3d b5 22 d7 3d
       -0.09002237 0.10928547 0.03592466 0.10504667
0003c0 ce f2 29 3d fd 23 7a bc 37 3f 89 3a 4a 3e 07 bd
       0.041491322 -0.015267369 0.001047111 -0.033018388
0003d0 2d 71 ee bc b2 e8 91 bd 79 25 00 bc e1 13 91 bd
       -0.0291067 -0.07124461 -0.007821434 -0.0708387
0003e0 2f 0a 81 3e ed f3 a3 3e df b6 2b 3d 2e 8a 08 bd
       0.25203082 0.32022038 0.041922446 -0.033334903
0003f0 d5 46 d0 bb f2 a1 c4 3c 87 fc 4f bd 6c 51 a0 bc
       -0.0063561 0.024003003 -0.05077794 -0.019570075

fc1.bias f4 [128]
000000 25 5b e0 3d 4f 2b 4e b9 8a 5b 3c be e5 db 36 be
       0.109548844 -0.00019661825 -0.18394294 -0.1785732
000010 81 7c 5f be a2 30 b8 bd 6a e4 74 bd 9b 92 d9 bd
       -0.21824838 -0.08993651 -0.059788145 -0.10623666
000020 9b 68 90 be ac ef 08 3e 5c b3 47 bd b5 66 de 3d
       -0.28204808 0.13372678 -0.048755035 0.108594336
000030 46 d8 55 3e eb 74 10 be b3 f6 3a be a5 2c ad bd
       0.20883283 -0.141071 -0.18258171 -0.08455781
000040 7e 12 74 be 7b 5c 30 be 77 44 7b be 9e cb ed bd
       -0.23835179 -0.17222778 -0.24537836 -0.116111025
000050 a1 70 42 be 85 17 34 be c0 7a 10 be 44 17 a2 be
       -0.18988277 -0.17587097 -0.14109325 -0.31658375
000060 0f 39 8e bc 8b d5 db 3d 87 cd 02 3d 36 c3 9f be
       -0.017361192 0.107340895 0.031934287 -0.31203622
000070 df 6d 85 be ea b0 ee 3d 34 cf 35 3c 53 01 47 be
       -0.26060387 0.116548374 0.011096764 -0.19434099
000080 33 c2 16 be ce f5 4f bd 3c ef 63 bd b0 33 c3 bd
       -0.14722519 -0.050771527 -0.055648074 -0.09531343
000090 ce 11 98 be 83 78 e6 3d d7 ca 78 be ab e0 21 be
       -0.29701084 0.112534545 -0.24296127 -0.1580836
0000a0 83 17 b1 be 51 98 c7 3e ac 6d 3e 3d f0 e9 6e bc
       -0.3458825 0.38983396 0.04649131 -0.014582142
0000b0 d8 bf 88 be 15 43 ce 3d a0 91 8e be 80 62 82 bd
       -0.26708865 0.10071389 -0.27845478 -0.06366444
0000c0 38 b2 29 3e 0c 91 68 bd 3a 19 4b 3e 88 2d be 3c
       0.16571891 -0.056778952 0.19833842 0.02321507
0000d0 90 87 8f bc 8b d0 0f be 3f bd d4 3d a8 88 19 3e
       -0.017520696 -0.14044397 0.10387658 0.14993536
0000e0 46 f3 65 bd 4c 67 c2 3d ee e7 31 be 4a c3 a9 bb
       -0.056140207 0.094923586 -0.1737363 -0.005180751
0000f0 08 e7 e1 bc 87 a5 58 be 5f c6 b9 3d d5 9c c2 bd
       -0.027575985 -0.21156894 0.090710394 -0.095025696
000100 e6 6d 7d be 79 7f 59 be fc f7 95 3d 29 a7 f4 3d
       -0.24748954 -0.21240033 0.0732269 0.11945946
000110 e0 9f 48 3d 7e 01 5c 3d df db b0 be 8b 30 ec bd
       0.048980594 0.05371236 -0.34542748 -0.11532696
000120 d2 e0 00 be 8c 02 c0 bd 0a 52 66 bd 52 41 15 3d
       -0.12585762 -0.09375486 -0.056230582 0.036439247
000130 ce 32 de 3d 78 71 d8 bd e9 63 64 be a5 b8 a6 bd
       0.10849534 -0.105685174 -0.22303738 -0.08140687
000140 55 87 3e 3d b1 83 0a 3e 6e 8b 73 3d 15 fb 65 3e
       0.04651578 0.13526799 0.059459142 0.22459061
000150 e4 4f 3b be da f9 0a be bc 8c 08 be 1b 92 e6 3d
       -0.18292195 -0.13571873 -0.13334936 0.11258336
000160 df a8 9e 3d 61 a4 95 be cd e6 3a be 10 77 91 bd
       0.07747053 -0.29226974 -0.18252106 -0.071027875
000170 ec 00 68 be 43 13 97 bb 2d 42 9c bd b2 b5 39 3e
       -0.22656602 -0.0046104505 -0.076298095 0.18135718
000180 2d bb b2 bd 33 cb c9 bd bc 3b bf 3d e9 96 a8 bd
       -0.08727107 -0.0985321 0.09337565 -0.08231909
000190 3e 8b 2e be 7d 15 46 3d 53 7f 08 be 69 17 0d be
       -0.17045304 0.048360337 -0.1332982 -0.13778462
0001a0 36 64 61 3d 04 d7 6a be 67 1b 29 be f1 f0 ea bd
       0.05502721 -0.22933584 -0.1651436 -0.11471737
0001b0 3d 07 9b bd ff d6 a3 bd 24 38 5d be 73 4b 2c be
       -0.0756974 -0.079999916 -0.21603447 -0.16825657
0001c0 35 b8 d6 3d 19 78 03 3e b3 db 84 be bf dd 42 be
       0.104843535 0.12838782 -0.25948867 -0.19029902
0001d0 5c 41 0e 3d c5 f4 d4 3d 08 a9 d1 bd 7b be 46 be
       0.0347303 0.103982486 -0.10237318 -0.194086
0001e0 cf 1f 3d be f8 56 b5 bd 90 95 13 bd 30 a7 d4 bd
       -0.18469165 -0.088544786 -0.036031306 -0.10383451
0001f0 5a 06 2c 3d 0a 2a 48 3e 0b 43 7d bc ea 13 5d bc
       0.041998245 0.19547287 -0.015457879 -0.013493517

bn1.weight f4 [128]
000000 fc ab ae 3f 2d 1f cb 3f 0a 65 a9 3f 24 f4 a5 3f
       1.3646235 1.5868889 1.323396 1.2965131
000010 3e 90 b2 3f 7e 44 c4 3f c4 2b 9f 3f dc d9 c4 3f
       1.3950269 1.5333402 1.2435231 1.5378985
000020 5f 1d 9f 3f 54 bc ab 3f 76 ca b9 3f 3f 1c 99 3f
       1.2430838 1.3416848 1.4514911 1.1961745
000030 23 88 9c 3f 19 16 95 3f 53 22 b1 3f d7 04 ab 3f
       1.2229046 1.1647369 1.38386 1.3360852
000040 ef 20 83 3f 81 ed 91 3f 47 a1 a3 3f 53 6d 96 3f
       1.0244426 1.1400605 1.2783593 1.1752113
000050 51 5d 98 3f 77 b7 9a 3f 91 3a a0 3f ed 73 aa 3f
       1.1903478 1.2087239 1.2517873 1.3316628
000060 cd 30 94 3f 2b 02 9f 3f 75 d5 b0 3f 14 d1 8c 3f
       1.1577393 1.2422537 1.3815142 1.1001306
000070 af 7c a7 3f 8a 92 a1 3f 40 89 9f 3f 9a 3f 9c 3f
       1.3084925 1.2622845 1.246376 1.220691
000080 7d 3f 96 3f bf cb 99 3f b7 56 a2 3f 06 1f c9 3f
       1.1738125 1.2015303 1.2682713 1.5712593
000090 c8 4c b0 3f 30 09 9a 3f 11 de ac 3f 3f e2 96 3f
       1.3773432 1.2034054 1.3505269 1.1787795
0000a0 7f 41 b5 3f 0b df a2 3f b5 d6 ad 3f e6 e2 ae 3f
       1.4160613 1.2724317 1.3581148 1.3662994
0000b0 42 3e a8 3f 73 3d a0 3f e3 f4 a4 3f 0d 9d b6 3f
       1.3144 1.2518753 1.2887233 1.4266678
0000c0 b0 33 a8 3f 8b 26 b3 3f 23 01 99 3f c9 2b 9e 3f
       1.3140774 1.3996137 1.1953472 1.2357112
0000d0 8a b6 a2 3f af 6c a8 3f e3 05 a9 3f 00 ba d1 3f
       1.2711957 1.3158168 1.3204921 1.6384888
0000e0 1c bb 9c 3f 5e ba a8 3f 0e 97 a3 3f 12 14 af 3f
       1.2244601 1.3181875 1.2780473 1.3678
0000f0 61 ea 93 3f 5c 33 9e 3f 85 57 c2 3f 82 d5 be 3f
       1.1555902 1.2359424 1.5182959 1.4908907
000100 a2 4b a4 3f 15 06 8b 3f f4 8b 9f 3f 21 e4 b0 3f
       1.2835581 1.0861231 1.2464585 1.381962
000110 f1 ec 91 3f 53 d9 ac 3f b6 4c a6 3f 64 84 8c 3f
       1.1400434 1.3503822 1.299216 1.0977902
000120 11 22 b7 3f 39 e7 aa 3f 4a 92 a0 3f 90 ec b6 3f
       1.4307271 1.3351814 1.2544644 1.4290943
000130 bf cd 97 3f 9c 64 9b 3f e7 a0 b5 3f 6c e3 9d 3f
       1.1859664 1.2140079 1.4189728 1.2335029
000140 b4 b1 ac 3f a7 91 a6 3f e1 03 9c 3f 34 bc 9f 3f
       1.3491731 1.30132 1.2188684 1.247931
000150 a7 16 9c 3f ba 89 b6 3f c9 eb 8e 3f 77 0b 9a 3f
       1.2194413 1.4260781 1.1165706 1.2034749
000160 f2 48 be 3f b1 01 bc 3f d4 fc b4 3f 27 36 a5 3f
       1.4866011 1.4688016 1.4139657 1.2907151
000170 12 3a bb 3f e0 83 a4 3f 0b 66 a8 3f ce ac b1 3f
       1.4627097 1.2852745 1.3156141 1.3880861
000180 b1 59 86 3f 36 14 ab 3f bc e4 b0 3f e3 79 b7 3f
       1.0496122 1.3365543 1.3819804 1.4334072
000190 21 41 9c 3f de 3b 9f 3f c1 73 82 3f d5 b9 b2 3f
       1.2207376 1.2440145 1.0191575 1.3962961
0001a0 ea 2e b5 3f fe fc 8a 3f 44 56 a9 3f a8 77 be 3f
       1.4154942 1.0858457 1.3229451 1.4880266
0001b0 09 39 a8 3f 80 18 9f 3f fa 46 9d 3f f3 eb aa 3f
       1.3142406 1.2429352 1.2287285 1.3353256
0001c0 83 02 ac 3f 9a 54 a4 3f ea db a6 3f ba 80 8f 3f
       1.3438267 1.2838318 1.3035862 1.1211159
0001d0 3d c1 a9 3f 4c 78 b8 3f a1 a0 ad 3f 50 e7 98 3f
       1.3262097 1.4411712 1.3564645 1.1945591
0001e0 f8 88 94 3f 3f 9c 9e 3f bd c1 9a 3f 94 b5 af 3f
       1.16043 1.2391433 1.2090374 1.3727288
0001f0 f2 4b bc 3f 05 fb a8 3f 18 6e a0 3f 36 d0 a6 3f
       1.4710677 1.3201605 1.2533598 1.3032291

bn1.bias f4 [128]
000000 3e ef 64 bd 20 ee 9f 3d c5 ab 17 3e 26 3c 51 bd
       -0.05589222 0.078090906 0.14811619 -0.051082753
000010 da 72 d5 3d 9e 20 7b 3d db 58 28 bd 0e 1b b8 bd
       0.10422297 0.061310403 -0.041100364 -0.08989535
000020 22 69 a8 3c 5f 18 5b 3e 84 3b 53 3d e0 0d c4 bd
       0.020557944 0.21396016 0.05157043 -0.09572959
000030 1b 61 c1 bd 0e 75 e1 bb c3 dc d0 3e 94 bd 92 bd
       -0.094423495 -0.006880409 0.40793428 -0.071650654
000040 c3 f1 b0 bd 19 9c 87 3d 11 ed 57 bb 5e 86 01 be
       -0.086398624 0.0662157 -0.00329477 -0.12648913
000050 af e8 20 bd 47 9f 59 be 53 a0 e4 bd 6b 04 f5 3d
       -0.039284404 -0.21252166 -0.11163392 0.11963733
000060 b0 44 55 3c 0c b9 8b bd 7d ab c9 bd b2 6c 08 be
       0.013016865 -0.06822404 -0.09847162 -0.13322714
000070 e3 e6 26 3e a4 4f 6f 3e 7a 08 49 3d 0e 24 84 bd
       0.16299014 0.23370224 0.04908035 -0.064521894
000080 7f 5a 10 be 9a d0 31 3d 28 7d ba bd 57 bd dc 3d
       -0.14097022 0.04341183 -0.09105903 0.10778301
000090 f3 72 18 bd 8e 5f f3 bd a4 11 0c bc 8b 40 14 bc
       -0.037219 -0.1188346 -0.008549128 -0.009048591
0000a0 ab a4 f4 3e 1c e7 cf bd eb c4 a3 3e 1b 87 81 3d
       0.47781882 -0.101515025 0.31986174 0.063245974
0000b0 41 df a8 3d 6c 6b 8e bd 58 a0 16 3e d2 f1 73 be
       0.08245707 -0.06954083 0.14709604 -0.23822716
0000c0 da 17 48 be 44 3a 62 be 0b d6 d6 bd 57 bb eb 3c
       -0.19540349 -0.22092539 -0.10490044 0.028775854
0000d0 f1 4d bc be 4f ce c9 3c fa a5 a5 bc bd e0 48 3e
       -0.36778215 0.024634508 -0.020220745 0.19616981
0000e0 7d 7a b5 3d 7a 14 c1 3a 21 43 d0 bc 2e 0c 95 3d
       0.088612534 0.0014730834 -0.025422635 0.07277714
0000f0 19 4e 68 3d 32 ea 13 bd 3c c1 b8 3d d3 b8 c3 bd
       0.056715105 -0.036112018 0.090212315 -0.09556737
000100 f8 05 10 be 68 fd b7 bd 1a d7 6d 3c ae a4 5d 3e
       -0.14064777 -0.0898388 0.014516616 0.21644852
000110 c0 32 7f 3c b3 5d 98 3d 05 10 25 be d7 79 38 3e
       0.015576065 0.07439747 -0.16119392 0.18015228
000120 3f 3b af bd 7a d3 49 3e dd ee 50 3e 33 6d a2 bb
       -0.08556222 0.19709578 0.20403619 -0.004956865
000130 76 53 08 3e 85 80 40 3e 0c c5 8f be 33 70 16 bc
       0.13313088 0.18799026 -0.28080022 -0.009182024
000140 5e 2c b0 bc 75 46 f0 bb ef cd b5 3d 96 92 80 3d
       -0.02150553 -0.007332618 0.08877169 0.06277959
000150 06 46 1b bd cc bd fd 3d 9e 84 12 be 35 09 cc 3d
       -0.037908576 0.123897165 -0.14308402 0.099626936
000160 b1 df 69 be f2 8c f0 3d c8 23 11 be 6d 42 8c be
       -0.22839238 0.11745633 -0.14173806 -0.2739443
000170 7e d6 96 3c 63 93 9f 3d 03 62 99 3d 21 36 4b 3e
       0.018412825 0.07791784 0.074893974 0.19844867
000180 38 44 97 bc 97 b7 af 3d 8d bc a4 3d ce 7b 53 3e
       -0.018465146 0.08579939 0.08043776 0.20652696
000190 c2 6d 64 bc 8f 80 95 bd ae 2b 7f 3d 1d 2b 3f 3e
       -0.013942184 -0.07299911 0.062297516 0.1866879
0001a0 0b 43 63 3d 82 7f 49 3e 0d df 48 be 36 70 fd bd
       0.05548386 0.19677547 -0.19616337 -0.12374918
0001b0 a5 59 f6 bd b1 93 29 be 67 48 e4 bd 55 c2 96 bd
       -0.12028817 -0.16560246 -0.11146622 -0.07361285
0001c0 c2 94 06 bd 2f 30 14 3e e3 23 52 3e 9d f4 f9 bd
       -0.03285671 0.14471506 0.20521502 -0.122048594
0001d0 0e a8 b9 3d 14 72 d5 bd 3d 7d 24 be b6 0c 69 3d
       0.09065257 -0.10422149 -0.160634 0.056896888
0001e0 06 ce 4b bd f2 54 9f bd f7 56 af 3c 90 0c d4 3e
       -0.049757026 -0.07779874 0.021403773 0.41415834
0001f0 12 f2 95 3d 11 33 fa bc 0a c9 1c bb 0a 84 1d be
       0.07321562 -0.030541928 -0.002392354 -0.153824

bn1.running_mean f4 [128]
000000 18 eb d9 3d aa d0 a1 3d 8e ef a0 3e 7c 34 c8 3e
       0.10640544 0.07901128 0.31432766 0.39102542
000010 ca 9c 4f 3e 10 a4 57 3e 25 f1 2f 3d 67 9e 84 3e
       0.20274654 0.21058679 0.042954583 0.259021
000020 92 05 b6 3e 0e bc eb 3d 2c c1 8d 3e 56 1b 94 3e
       0.35551125 0.11510478 0.2768644 0.28927106
000030 c3 85 09 3e d4 12 ef 3d e0 62 81 3e 8a e0 8b 3d
       0.13429932 0.11673513 0.25270748 0.06829937
000040 46 19 c6 3c 15 79 f3 3e 9e 5d ca 3e b7 21 ca 3d
       0.024181973 0.47553316 0.3952455 0.09869712
000050 ba 54 d5 3e 99 5b 99 3e 4a b1 90 3e 6b 67 1a 3e
       0.41666204 0.29952696 0.2826026 0.15078513
000060 f0 3c 6f 3d b4 fc 2a 3f 65 ff ba 3e 91 04 a9 3d
       0.058407724 0.66791844 0.36522976 0.08252824
000070 81 84 af 3e 12 12 ff 3d 07 51 32 3f d0 f6 5b 3e
       0.3428078 0.124546185 0.6965489 0.2148087
000080 80 57 e9 3e 32 7b 5c 3e c0 6f 42 3f 8e 1d 84 3e
       0.4557457 0.2153137 0.75951767 0.25803798
000090 44 a3 09 3e 60 49 7a 3e c3 2f ad 3e fc 1f 8d 3d
       0.13441187 0.24442053 0.33825502 0.06890866
0000a0 62 ed e2 3d 50 a8 f2 3e 59 af af 3e c1 f7 23 3f
       0.110804334 0.47394037 0.34313467 0.6404992
0000b0 f9 ea 31 3e d5 f6 00 3f e3 ab b2 3a 1b 4d 43 3e
       0.17374791 0.50376636 0.0013631548 0.19072382
0000c0 69 c0 f1 3e fe 86 a7 3e 92 dc 9a 3e 27 9f 73 3e
       0.4721711 0.32720178 0.30246407 0.2379118
0000d0 1f fd 14 3e 0c 3a cb 3e 81 09 09 3f 9f 79 7a 3f
       0.14549683 0.39692724 0.53530127 0.9784183
0000e0 fc a6 71 3e 17 ce 55 3e dd a3 31 3d 5c 04 d8 3e
       0.23598856 0.20879398 0.043369163 0.42190826
0000f0 cb a8 d1 3e ae fc cb 3d 36 c7 dc 3e 5e 54 59 3e
       0.4094909 0.09960304 0.43120736 0.2122359
000100 ee c4 04 3e 73 f3 08 3d e7 ba 7f 3e 3d f6 73 3f
       0.12965748 0.033435296 0.24973641 0.95297605
000110 de a9 4b 3f 3d be 3c 3f 95 46 5c 3e 60 90 9b 3e
       0.7955607 0.7372778 0.215113 0.30383587
000120 9f 60 17 3e b6 b7 63 3e 23 f2 63 3e 70 43 5e 3e
       0.14782952 0.22238049 0.22260337 0.21705413
000130 be e4 cb 3e 5f 75 c8 3e e3 43 bf 3e cf 4f 94 3f
       0.39822954 0.39152047 0.3735648 1.1586856
000140 32 b0 8d 3e b1 f1 df 3e ed f1 ce 3d f8 26 2e 3f
       0.2767349 0.43739083 0.101047374 0.6802821
000150 38 e4 28 3d 89 17 87 3e 69 a0 08 3d 24 c6 30 3f
       0.04123327 0.26385143 0.033356104 0.6905234
000160 16 26 75 3e f3 05 ad 3e 6d e4 06 3e 8a ca ca 3d
       0.2394031 0.337936 0.13173075 0.099019125
000170 ac 8c 3b 3d 16 e0 2e 3e 46 8d 40 3e d4 93 b4 3f
       0.045788452 0.1707767 0.18803892 1.4107614
000180 a9 fd 60 3e 21 b6 52 3f e2 3b d9 3e 2e 88 e3 3e
       0.21971764 0.82309157 0.424285 0.44439834
000190 9b 77 e8 3d b8 1f 3f 3e 4b d4 3f 3c cf 94 b4 3e
       0.11350938 0.18664443 0.011708329 0.35269782
0001a0 81 1c 05 3e 82 6d ea 3d e6 9e ab 3d 49 08 a5 3e
       0.12999155 0.11446668 0.08379917 0.32232884
0001b0 27 a1 2f 3e 65 92 02 3f 8d ea c5 3e 4f 45 b2 3e
       0.17151318 0.5100463 0.3865551 0.34818503
0001c0 01 73 ff 3d 0c 75 f4 3f 1a e0 3a 3e a2 97 b0 3d
       0.12473107 1.909822 0.1824955 0.08622672
0001d0 81 cd 8f 3e 44 04 98 3e 19 09 08 3e 55 5b ea 3c
       0.28086475 0.29690754 0.1328472 0.028608004
0001e0 c5 6f e0 3d c4 11 de 3d 10 7f 1a 3d 42 a4 ee 3e
       0.10958818 0.10843232 0.037718832 0.46609694
0001f0 b5 09 0a 3e dc f6 48 3f b0 b6 00 3e f2 6b 4b 3f
       0.13480265 0.7850168 0.1256969 0.79461586

bn1.running_var f4 [128]
000000 97 8f 3c 3d d6 56 e5 3c 84 9a 8f 3e 90 16 94 3e
       0.046035375 0.027995508 0.28047574 0.28923464
000010 ab bb b0 3d 70 5c df 3d 64 74 d7 3c f0 09 fe 3d
       0.08629545 0.10906303 0.026300617 0.12404239
000020 39 07 2d 3e d9 d1 46 3d d5 89 ba 3d 90 19 26 3e
       0.16897286 0.04853997 0.091083206 0.16220689
000030 45 ef af 3d a7 99 72 3d 83 c0 27 3e de fb fc 3c
       0.08590559 0.059228566 0.16382031 0.030881818
000040 d0 96 85 3c 25 5b 31 3f 03 f3 ab 3e 5c 6e 87 3d
       0.016307265 0.692797 0.3358384 0.06612846
000050 fc 00 db 3e f7 23 8e 3e c5 68 4f 3e c2 0f a1 3d
       0.4277419 0.27761814 0.2025481 0.07864334
000060 3b 4e 32 3d 06 43 86 3e 2b 31 7e 3e fd a7 39 3d
       0.043531638 0.2622301 0.24823444 0.04532622
000070 33 4e 4e 3e 65 c8 88 3d b9 9d 41 3f 55 72 15 3e
       0.20147018 0.06678847 0.7563129 0.14594395
000080 72 1b 9a 3e dd c5 e0 3d e8 57 5e 3f 81 a6 37 3e
       0.30099064 0.109752394 0.86852884 0.1793461
000090 1e 33 a4 3d c0 d1 03 3e 22 73 59 3e 7a 97 20 3d
       0.08017562 0.12872982 0.21235326 0.03920696
0000a0 81 f4 81 3d d9 48 aa 3e ff ef 4a 3e cc a2 c6 3e
       0.063454635 0.33258703 0.19818114 0.3879608
0000b0 c0 54 41 3e ad 39 cf 3e 0c 15 33 3a 7b d2 b8 3d
       0.18879986 0.4047369 0.00068314443 0.09024521
0000c0 52 f5 c8 3e ca 79 60 3e 5e b5 f1 3d e1 30 bf 3d
       0.39249665 0.21921459 0.11802171 0.09335495
0000d0 26 2b 98 3d 94 4b ba 3e ca cc bf 3e 01 ef d8 3e
       0.07430105 0.36385787 0.3746093 0.42369846
0000e0 0a be 46 3e be e3 ed 3d cb 7b ea 3c e7 bc 16 3e
       0.19408432 0.11615704 0.028623482 0.14720498
0000f0 2d 7e bd 3e 3d 3b 94 3d 53 3b 5f 3e 7d 24 d6 3d
       0.37010327 0.07237861 0.21799974 0.10456178
000100 95 e1 8e 3d 95 63 7a 3c f2 e9 e5 3d 11 cd 79 3f
       0.0697662 0.015282531 0.11226262 0.9757853
000110 0a 0a 56 3f 14 e1 76 3e 6d 1a fa 3d 6b 8e 8e 3e
       0.8360907 0.24109298 0.122120716 0.2784303
000120 b9 26 d9 3d d2 f7 d9 3d ce 91 15 3e cb 6c e3 3d
       0.10603089 0.10642971 0.14606401 0.11104735
000130 94 97 b6 3e 45 e6 72 3e 41 36 91 3e 95 b2 08 3f
       0.3566252 0.23720653 0.28361705 0.53397495
000140 e8 4e 78 3e b6 bb a5 3e 86 0d 69 3d b1 c1 fe 3e
       0.2424885 0.32369775 0.056897663 0.4975715
000150 73 29 ba 3c 36 46 c4 3d be 94 83 3c 1c eb 08 3f
       0.022724843 0.09583704 0.016062137 0.5348375
000160 f7 2a fa 3d 1f 88 5a 3e 63 11 76 3d 79 c7 7d 3d
       0.12215226 0.21340989 0.060075175 0.06195781
000170 05 c6 bd 3c 54 80 93 3d 2a 00 bc 3d 22 fa f2 3e
       0.023165712 0.07202211 0.09179719 0.4745646
000180 cb 11 63 3e 82 a4 ca 3e ad cf af 3e f3 b9 96 3e
       0.22174756 0.39578635 0.34338132 0.29438743
000190 82 1c 4a 3d 83 0f c0 3d c3 85 de 3b e7 07 6c 3e
       0.049343593 0.093779586 0.006790848 0.2304989
0001a0 ca 73 71 3d 4c 4e 9f 3d 2b 67 33 3d a9 0d 3b 3e
       0.058948316 0.07778606 0.04379956 0.1826693
0001b0 a0 05 a9 3d 52 4a ee 3e e8 c8 87 3e e4 70 75 3e
       0.08253026 0.46541077 0.26520467 0.23968846
0001c0 e0 96 7d 3d 85 71 1d 3f 03 42 f3 3d f7 34 54 3d
       0.061911464 0.6150134 0.11877825 0.051808324
0001d0 c7 67 29 3e e3 1e 1e 3e b8 2f 82 3d 20 02 81 3c
       0.16543494 0.1544147 0.06356758 0.015748084
0001e0 89 49 90 3d c5 ab 9b 3d 55 44 a9 3c c7 a3 b6 3e
       0.07045276 0.07601122 0.020662466 0.35671827
0001f0 c8 24 90 3d d5 f9 1d 3e 57 fb 9b 3d 33 c8 4c 3f
       0.070382655 0.15427335 0.07616299 0.7999298

fc2.weight f4 [128, 128]
000000 99 eb 14 3e ab 39 38 3d e3 66 f6 3d 7b 98 cf bc
       0.14542998 0.04497687 0.12031343 -0.025341263
000010 56 35 94 bc 0f 10 d0 3d 12 f6 93 3d 56 59 15 3d
       -0.018091839 0.10159313 0.072246686 0.03646215
000020 48 31 23 3e 31 0e b9 3d 37 5b 3c bd 63 da e3 3d
       0.15936768 0.0903591 -0.045985427 0.11125638
000030 a3 23 7e 3e 81 1f 2c be bc ab f5 bd 33 64 95 3d
       0.24818282 -0.16808893 -0.11995646 0.07294502
000040 93 0c d5 3d c1 08 93 bd af ee 59 3e 2f 13 0a 3c
       0.10402789 -0.07179404 0.21282457 0.008427425
000050 20 3e 79 be 90 c0 83 bd 71 5d 0d bd a2 c8 06 3d
       -0.24340105 -0.06433213 -0.03451294 0.032906182
000060 0d 0d d0 bd 2b 42 89 3e 6f f7 86 be 6f d1 8d bd
       -0.10158739 0.26808295 -0.26360652 -0.06924712
000070 e5 0c df be 26 83 c7 bc d9 2c 1c be a2 a2 d8 3d
       -0.43564525 -0.024354529 -0.15251483 0.10577895
000080 98 c3 4e bd 4d 10 e2 bd 7e 6c b9 3d 8e 1a 6c 3d
       -0.0504795 -0.110382654 0.09053896 0.057642512
000090 67 e9 b1 be 47 43 05 3e f6 86 c5 be 2d 0a 7d bd
       -0.34748384 0.13013946 -0.3857953 -0.061777283
0000a0 60 be dd bd 85 e3 88 bd 76 b2 08 be 2f 4e 0c be
       -0.10827327 -0.06684021 -0.13349327 -0.137017
0000b0 e4 b5 8c bd 56 2b a0 bc 85 92 22 be e8 fd bb 3d
       -0.068706304 -0.019551914 -0.15876205 0.09179288
0000c0 eb 94 56 bd 06 ec 24 bd 8a a5 83 bc 98 ad 54 bd
       -0.052388113 -0.040264152 -0.016070146 -0.051923364
0000d0 7b 7b f1 3d b8 37 72 bd d2 86 d6 bd 9d a8 92 3e
       0.1179113 -0.05913517 -0.10474934 0.28644267
0000e0 f9 d8 75 bd 13 7f 59 be d2 4c 79 3d 52 09 34 bd
       -0.060021374 -0.21239881 0.060864277 -0.0439542
0000f0 d3 eb d7 bd ee e9 e7 bd a9 bb a9 3c 6c ae a8 3d
       -0.10543027 -0.113239154 0.020719366 0.08236393
000100 30 d1 19 3d 1e 27 a0 bd e6 26 e0 3d de 9e 1c be
       0.037553012 -0.07819961 0.10944919 -0.15294978
000110 7d b7 61 3e 63 f8 20 be 0e b6 10 3e db a6 b0 3d
       0.22042651 -0.15719752 0.14131948 0.08625575
000120 89 9a 49 be 74 32 e9 3c 17 ec e5 3d a8 60 db bc
       -0.19687857 0.02846644 0.11226671 -0.026779488
000130 09 e2 96 be 5b fa e7 bc 6b d6 ff 3d 45 6d c0 3d
       -0.29469326 -0.028317621 0.12492069 0.093958415
000140 32 0c 43 bd 5d 6c a6 3d 98 c3 3f be 59 b6 12 3d
       -0.047619052 0.081261374 -0.18726957 0.03581843
000150 9f 00 b2 3d e9 db 29 be 85 be b1 bd 10 04 8f 3e
       0.08691525 -0.16587795 -0.08678917 0.27932787
000160 ed 30 45 3d eb 03 b1 3c c6 4f 14 3e 4f 30 2d be
       0.048142362 0.021608314 0.14483556 -0.1691296
000170 ae 92 ad 3d fd b3 8e 3e fc 83 e9 be 90 9c 91 3d
       0.084752426 0.27871695 -0.4560851 0.0710994
000180 9c a2 02 bc 21 2a 64 3c 7b 70 81 be 28 39 28 be
       -0.007973339 0.01392606 -0.25281128 -0.16428053
000190 06 d2 e6 bd 7c 50 20 be f3 20 b7 39 03 e8 2d 3e
       -0.112705275 -0.15655702 0.0003492903 0.16983037
0001a0 f4 15 64 be 40 90 77 3d 03 b8 25 be 02 23 9e 3c
       -0.22274 0.060440302 -0.16183476 0.019303802
0001b0 33 1e 89 bd 90 1a 9d be 67 36 94 be 81 b5 bf 3c
       -0.06695213 -0.30684328 -0.28947756 0.023401977
0001c0 23 3b 5b 3e d1 85 21 3e b3 78 f8 3d f6 f0 06 be
       0.21409278 0.15773703 0.121323965 -0.13177857
0001d0 fb 1e 4b 3e 7a 84 54 bc 24 96 ed 3d e0 c7 28 3e
       0.19836037 -0.012971038 0.11600903 0.16482496
0001e0 56 13 7b 3d bb 47 b4 bd 0e 5d d5 bc ed 03 22 be
       0.061297737 -0.08802744 -0.026045348 -0.1582181
0001f0 db 24 16 be 0c 51 61 bd 0a 54 8a 3c 28 92 3b be
       -0.14662497 -0.055008933 0.016885776 -0.18317473
000200 cf 1e 69 be 03 41 d1 3c 0a b3 84 be ea 2e 81 3e
       -0.22765659 0.025543695 -0.25917846 0.25231105
000210 54 7d 75 be 06 7f 87 bd b6 27 4d 3d d3 16 9e be
       -0.2397359 -0.06616025 0.0500867 -0.30876788
000220 00 c2 f9 3d 57 ce 92 3c 61 83 9a bd 80 b3 13 3d
       0.12195206 0.017920656 -0.0754459 0.036059856
000230 92 41 b0 3c 6f f7 9c bc 5e a2 9a 3e f7 bd ba be
       0.021515641 -0.019160954 0.30202 -0.36473057
000240 e0 df 5a be d1 da 13 bd 06 46 0f 3e e8 f1 04 be
       -0.21374464 -0.03609735 0.13991556 -0.12982905
000250 a9 aa 1d be b8 fc 00 3c 38 40 e2 3d 1d 79 08 3e
       -0.15397133 0.007872753 0.11047405 0.13327451
000260 7f 28 89 bd cd ec 5a be ad 14 64 3d 97 c3 41 be
       -0.06697177 -0.21379395 0.05568378 -0.18922268
000270 5c d0 0a be 6e 53 02 3d 01 04 f1 3d 56 16 46 3e
       -0.13556045 0.031817846 0.11768342 0.19344458
000280 47 bf 06 be 57 e4 ca 3d 44 90 8d bd 55 3d 5a 3e
       -0.13158904 0.099068336 -0.06912282 0.21312459
000290 bc 45 39 3e b0 93 47 3e 1e 98 21 3e 8c 7e b8 bd
       0.18093008 0.19489932 0.15780684 -0.09008512
0002a0 ad 39 ac bd ef 07 14 3e 02 0c 5a be c1 fa fd 3d
       -0.08409438 0.14456151 -0.21293643 0.12401343
0002b0 73 cd a2 3d 3b 68 e3 bd db 86 83 bc 8b df c8 3d
       0.079493426 -0.11103865 -0.016055515 0.098082624
0002c0 44 50 80 3e 2c 92 b0 bd fb ea 1a be 03 c6 be 3d
       0.25061238 -0.0862163 -0.151287 0.093151115
0002d0 66 72 70 3d 40 7e e6 3d 8f c5 fb bd 52 e2 08 3e
       0.05870285 0.11254549 -0.12293541 0.13367584
0002e0 6d 8e 72 3e 5d 8e 9c bd 1b b7 16 3e da 67 cd bd
       0.23687144 -0.07644341 0.14718287 -0.10029574
0002f0 4c f8 43 3e 82 08 cd 3b 45 9c 98 3c 21 1e 05 3e
       0.19137686 0.0062571177 0.018629203 0.12999775
000300 62 d5 29 3e bf cd 25 3e 66 4c c3 be 3a 39 41 3d
       0.16585305 0.16191767 -0.38144225 0.047173716
000310 a0 cb d1 3d 71 e9 f1 3c bb 54 47 be fd d5 0f 3e
       0.102439165 0.029530259 -0.19465916 0.14046474
000320 06 3d bf 3e 81 12 6f 3e d8 a8 0c be 98 4f d5 3c
       0.37351245 0.23346902 -0.13736284 0.02603893
000330 1c ff ac 3c c0 93 34 3e c6 f9 e3 bd 5f 32 3b 3d
       0.02111774 0.17634487 -0.11131625 0.045702334
000340 b0 67 2b be 94 0b 1c 3d d8 3a 8d 3d 7e 55 f7 3d
       -0.16738772 0.03809698 0.06895989 0.12076853
000350 de dd a9 bc bc b5 0a be 1b 2b bb be 0e 45 34 3d
       -0.020735677 -0.13545889 -0.36556324 0.04401117
000360 43 4c b3 bd 9e bf d5 bd 81 76 a7 bd f0 35 dc bd
       -0.0875478 -0.10436939 -0.081769 -0.10752475
000370 0b 4a cd 3e 76 9a 93 3d a3 c3 d1 bd 24 03 cd bd
       0.40095553 0.072071955 -0.10242393 -0.10010365
000380 3d 8b 5d bd c4 d5 d1 bb e2 43 d7 bd fd 32 1e be
       -0.054087866 -0.0064036567 -0.105109945 -0.15449138
000390 0b a2 e3 3c 32 10 cc bd 4c ad ec bd 95 e8 b0 bd
       0.027787229 -0.099640265 -0.11556491 -0.086381115
0003a0 a1 5f 13 3e 4c 6b 09 bf 13 d0 9f be e9 4d 30 be
       0.14391948 -0.5367935 -0.31213436 -0.1721722
0003b0 b6 fc e1 bd 9a dd e6 bd 1a e8 f9 bd a2 70 38 3e
       -0.11034529 -0.11272736 -0.12202473 0.18011716
0003c0 13 f1 0a 3e 26 5a 96 bd 27 a1 08 be fc 26 0b 3e
       0.13568525 -0.07341413 -0.13342725 0.1358909
0003d0 e7 6b bd 3d 62 a2 7f be 58 d3 2b 3e fc d2 29 3d
       0.09249096 -0.24964288 0.1677984 0.041460976
0003e0 6f 78 b8 3d 43 db 94 bc cf 65 fb bd 3e 7c fd 3d
       0.09007346 -0.018170958 -0.12275278 0.12377213
0003f0 72 67 84 3e 06 61 ea 3d e4 a1 07 3d 84 45 9d be
       0.25860173 0.11444287 0.033113375 -0.307171

fc2.bias f4 [128]
000000 18 13 c2 3c 49 4d 46 3e df 9e 50 3e 6f f8 dd bd
       0.023690745 0.1936542 0.20373105 -0.108384006
000010 0b b9 d9 3c 8d 64 92 3b b4 d2 19 3b f8 91 18 3c
       0.026577493 0.004467553 0.0023471536 0.009312145
000020 19 98 38 bd ac b3 98 be 9e 66 db 3d 7f b8 0f 3e
       -0.045066927 -0.2982458 0.10712932 0.14035223
000030 b6 51 3a 3e 92 3a 9f b9 db 76 5d be bc fb c0 3d
       0.18195233 -0.00030370482 -0.21627371 0.094230145
000040 d6 20 1f 3d ff a1 19 3e 4d 8f cb 3c ad d1 bb bc
       0.038849674 0.15003203 0.024848605 -0.02292713
000050 78 85 38 be a8 b3 f3 3d f7 81 00 be 8b 0d c1 bc
       -0.18019664 0.11899501 -0.12549578 -0.023566028
000060 76 c4 f3 3d 69 75 3c 3e 74 ee 2b be 3f d9 82 be
       0.11902706 0.18404163 -0.16790181 -0.2555637
000070 8e aa 8b be 2c 46 a1 bc 43 9b c8 be bb 11 54 bd
       -0.2727856 -0.01968678 -0.39180955 -0.05177472
000080 23 2e 7a 3d 89 2e da bc a9 80 c3 3d 89 33 0b be
       0.061079156 -0.026633518 0.09546024 -0.13593878
000090 b6 54 06 3d 1f c1 b5 bd 7a 0e 52 be 84 09 fb 3d
       0.03279563 -0.088747256 -0.20513335 0.12257674
0000a0 9a d7 e9 bd 2a 1b 06 be 95 bb 97 3b a8 70 0a 3d
       -0.11418076 -0.130963 0.004630516 0.033798844
0000b0 06 a4 53 3e fd dd 09 be a7 87 0b 3e 89 c0 10 be
       0.20668039 -0.13463588 0.13625966 -0.14135946
0000c0 4c 25 22 3e a7 31 01 3e 1f ab 8a be 80 ba 01 3e
       0.1583454 0.12616597 -0.2708368 0.126688
0000d0 5c bb 63 bd 90 23 c9 3b d1 d6 d3 bb 40 85 80 be
       -0.0555986 0.0061382726 -0.006464817 -0.25101662
0000e0 dd b3 56 be 15 a2 a1 bd f6 60 00 be 81 2d d8 bc
       -0.2096705 -0.07892243 -0.12536988 -0.026388885
0000f0 dc 54 d2 3d 69 ac 5e be 92 d0 7d bd 44 49 47 3e
       0.10270092 -0.21745457 -0.061966486 0.19461542
000100 15 72 a1 3d dc 27 29 3c 77 a3 db bd c0 ac 86 be
       0.078830875 0.010324445 -0.10724538 -0.26303673
000110 12 49 ec bd 62 77 72 bd 03 bd 7f be 4a a3 1c be
       -0.115373746 -0.059195884 -0.24974446 -0.15296665
000120 2d 63 3f be 60 6c 52 3d e7 88 7a bc 8e d4 ef 3d
       -0.18690176 0.051372886 -0.015291429 0.117104635
000130 cf d0 d6 3d 3f 9e 81 be 15 01 15 3e dd 33 ad 3d
       0.10489046 -0.25316045 0.14551194 0.08457158
000140 79 b0 e7 3d 06 7a 4d bd 49 db c3 bc 48 bf dd 3d
       0.11312956 -0.0501652 -0.023908274 0.108275
000150 79 e4 1c be e4 74 f1 bd 51 09 d6 3d a9 72 9e bd
       -0.1532153 -0.11789873 0.10450996 -0.077367134
000160 28 7b 50 be 68 7f 98 bd cb 71 d8 bd 4d 02 07 3e
       -0.2035948 -0.07446176 -0.10568579 0.13184471
000170 3d 47 a0 bd 30 c0 90 be 04 f3 09 bd 06 95 19 be
       -0.078260876 -0.28271627 -0.033679023 -0.14998254
000180 86 cc 09 3d fe 6e 1a be cc 2d 13 bc 4a 06 70 bd
       0.033642314 -0.15081403 -0.008983087 -0.058599748
000190 df 7c b7 3d 0d be e5 3d 3c 59 5e 3d cc 2d ec bd
       0.08959364 0.1121789 0.05428432 -0.115321726
0001a0 3d 45 67 3e b6 16 d6 3c 6f be 87 be 1b 4c fe 3c
       0.22585006 0.026133876 -0.26512477 0.03104215
0001b0 84 c1 a1 3d 26 91 3b be 8f 34 1a be 80 c2 37 3d
       0.07898238 -0.18317088 -0.15059112 0.044863224
0001c0 a3 62 59 bc 51 6d db 3d 2c dd 66 bd 9d 95 7e 39
       -0.013268146 0.1071421 -0.05636327 0.00024279063
0001d0 93 39 a9 bd 29 48 f3 be 77 64 5b bd 3b c7 ab 3d
       -0.082629345 -0.4751599 -0.053562608 0.083876096
0001e0 c0 c9 3e 3d 6b 77 4a bc 11 73 89 bc 8b 3a 5f 3d
       0.046579123 -0.012357573 -0.0167785 0.05449919
0001f0 74 cb 9e bd d9 cc 4a bd 33 55 a9 bd 4b 4a 8d 3e
       -0.07753649 -0.049511764 -0.082682036 0.27595744

fc3.weight f4 [4, 128]
000000 93 10 ec bd b7 2b cd 3d a9 83 26 bd f0 a1 fd bd
       -0.11526599 0.100181036 -0.040652905 -0.12384403
000010 69 4a d5 be f5 6e 0d 3e 0e 3e 3d be 90 d5 8c be
       -0.41658333 0.13811858 -0.18480703 -0.27506685
000020 0a a0 21 be a3 c1 4c be 3a 64 0f be cc 29 91 3e
       -0.15783706 -0.19995742 -0.14003077 0.283522
000030 01 ce 6d 3c 55 4f 24 be 7b af 69 be d3 4a e0 bd
       0.014514447 -0.16045888 -0.22820847 -0.109517716
000040 27 46 8e 3e 2e 15 01 3f 00 1d 22 3f 8f 13 a9 3e
       0.27787897 0.5042294 0.633255 0.33022735
000050 d8 dd a8 3e 7c 84 6c bd 71 27 a7 3e dc 34 25 3e
       0.32981753 -0.057743534 0.3264728 0.16133446
000060 65 69 c6 bd 5a 57 73 3e a1 a9 99 bc 4b 91 08 be
       -0.09688071 0.2376379 -0.018757643 -0.13336675
000070 47 a0 7f be 78 0b 28 be ed 20 3b be bd 12 b8 3e
       -0.24963485 -0.16410625 -0.18274279 0.35951796
000080 68 66 57 bc 26 fa 36 3e aa 0d 16 3e 73 0c 16 be
       -0.013146974 0.17868862 0.1465365 -0.14653187
000090 f9 e2 2f 3f c5 1e 42 3e e0 e4 fe be 84 b8 5c 3e
       0.6870571 0.1895705 -0.49783993 0.21554762
0000a0 1c 35 93 3e b8 72 80 be 2e 41 37 bf 7c 11 fb 3d
       0.28751457 -0.25087523 -0.7158383 0.12259194
0000b0 aa 3b 82 3e 7f d5 37 bc d6 30 53 3e a9 dc eb be
       0.25436145 -0.011220335 0.20624098 -0.46066788
0000c0 67 85 d4 be 20 8e 8f 3e 96 5e 40 3e 25 2c 08 3f
       -0.41508028 0.2803812 0.18786082 0.5319236
0000d0 fb e9 ac be f2 f2 c0 be c6 c8 46 3e ff 6a e2 3e
       -0.33772263 -0.37685353 0.19412526 0.44222257
0000e0 8c b2 2c be ff 26 cb 3c fe 8c 47 bd 2c 04 ad 3d
       -0.16864985 0.024798868 -0.048718445 0.08448061
0000f0 ec 9b 1b 3e 0f bd 1e 3f b8 dc 64 3e 48 c5 24 bf
       0.15196198 0.6200723 0.22349823 -0.6436353
000100 98 1a 26 3e 30 c9 d5 3d ee 38 9d 3d 15 ba 2f 3e
       0.16221082 0.10438764 0.07676874 0.17160828
000110 8d 97 58 3e b4 5d 66 3d 83 35 02 be 74 df 4d be
       0.21151562 0.056241706 -0.12715726 -0.20104772
000120 c1 dd 14 3d 1c ef 8a bd 5b a8 0a 3d e0 15 23 be
       0.036344294 -0.06783888 0.033851963 -0.15926313
000130 d0 ab 93 be d1 b9 bc be 5f a8 a4 3e df 78 67 3e
       -0.2884202 -0.36860517 0.32159707 0.22604702
000140 6c be a2 be ce fc 21 3c 40 6b 27 bd f3 aa 56 3e
       -0.31785905 0.0098869335 -0.040873766 0.2096365
000150 e4 36 0b 3f dc 3b 51 be 15 ad 99 3d ac 7c e1 be
       0.5438063 -0.20432991 0.07503716 -0.4404043
000160 93 01 21 bf 3b 95 aa 3d 3d de 57 be ea 18 35 be
       -0.6289303 0.08329245 -0.21080871 -0.17685285
000170 85 cc 4b be 2f b5 49 3e 00 56 17 bd 20 e3 f0 3c
       -0.19902237 0.19698022 -0.03694725 0.029405177
000180 3e 4e a5 3e fa 04 c4 bc 25 f8 5f 3e ff 10 dd 3d
       0.32286257 -0.023928154 0.21872003 0.107942574
000190 06 22 81 be 85 3a 2a bf 3f 40 a1 bc 7b 5a 5c bc
       -0.2522127 -0.66495544 -0.019683955 -0.013449307
0001a0 ce fb b0 be 29 97 db 3e be 03 06 bf 45 05 c4 3d
       -0.34567112 0.42888764 -0.5234946 0.095713176
0001b0 a8 a7 cb bd 1b f3 9b be 47 cc c6 bd 86 91 0a bf
       -0.09944087 -0.30458912 -0.097069316 -0.541283
0001c0 5c ca 40 3d 7b 1d e4 3e b0 7b 12 3e e2 32 62 be
       0.047067985 0.44553742 0.14304996 -0.22089723
0001d0 30 d0 18 bf 22 e9 0f bd 68 75 b2 3c bc b3 89 3e
       -0.5969267 -0.035134442 0.0217845 0.2689494
0001e0 a6 8d a4 3c b5 98 a8 3e ef 0c 13 3e f2 61 28 3e
       0.020087074 0.32929006 0.14360403 0.16443613
0001f0 a4 11 12 bf 5f 48 3b be 56 78 51 bc ac 3d f1 3c
       -0.5705817 -0.18289326 -0.012785038 0.029448353
000200 e3 2a 44 bd 07 25 8f be 46 9b f3 be 85 9b 06 be
       -0.047892462 -0.27957937 -0.47579402 -0.13145263
000210 9f b5 37 3d 6e ae 2a 3d b8 5c be 3c a2 e6 81 be
       0.04485094 0.041670255 0.023237571 -0.2537127
000220 54 32 a5 3d 3c 81 88 bb 8b 59 00 3e 78 b6 b5 bd
       0.0806624 -0.0041657966 0.12534158 -0.08872694
000230 b3 23 02 bf 87 50 ed be 1a 96 d9 3e 2a a5 41 3e
       -0.5083572 -0.463505 0.4249733 0.18910661
000240 69 a7 85 3e 8d 03 0b 3e 87 cb d6 3d 2c 26 8d 3e
       0.26104286 0.13575573 0.104880385 0.27568185
000250 b6 46 42 3f 80 e3 cb 3e fd 91 58 be 61 e0 8f 3e
       0.75889146 0.39822006 -0.2114944 0.28100875
000260 ee f5 a1 3e 4a 64 ed 3d f2 68 2f 3f ed ee aa 3d
       0.31632942 0.11591394 0.6851951 0.08346353
000270 70 b7 6e bd 8b 43 47 3e eb d1 53 3d 10 fd 77 be
       -0.05828041 0.1945936 0.051713865 -0.2421763
000280 e6 c5 08 be 53 69 c3 be 39 90 4b 3d 8d 13 94 3e
       -0.13356742 -0.38166294 0.04969809 0.28921166
000290 41 bd 46 3e 18 0b e6 3d 80 95 86 3d ae 4c 41 be
       0.19408132 0.11232585 0.065714836 -0.18876907
0002a0 54 3e fc 3d 63 84 98 3d 8c d6 07 be 19 47 8c be
       0.12316576 0.07447126 -0.13265437 -0.27397993
0002b0 71 fe 61 3d 73 b2 a5 be 2c de 9c 3e ac 96 d1 3e
       0.055174295 -0.32362708 0.30638254 0.40935266
0002c0 88 aa 61 3e db 86 80 be 39 f0 45 3f 80 b2 a8 bd
       0.22037709 -0.25102887 0.77319676 -0.08237171
0002d0 d0 04 a0 bd ef 60 b1 bd 81 cb 8b bd 25 66 e9 bd
       -0.07813418 -0.08661067 -0.06825925 -0.11396436
0002e0 fa 50 22 3b f4 85 97 be c8 ca 68 3e 0b e8 c3 bd
       0.0024767504 -0.29594386 0.22733605 -0.09565743
0002f0 84 bd c5 bd 35 14 9d bc 17 1c 8e 3c e4 91 87 bd
       -0.09655288 -0.019174675 0.017347379 -0.06619623
000300 fe 2f 44 be fe 59 a9 be 0c 2e e1 3d d0 a4 d9 bd
       -0.19158933 -0.3307647 0.10995111 -0.106271386
000310 44 c7 1a be 76 37 74 bc bf da f3 3e ce 3f 93 be
       -0.15115076 -0.014905801 0.47627828 -0.28759617
000320 d7 50 eb bd f6 e9 1c be 7d 57 d0 3e 8c a0 10 3f
       -0.11490028 -0.15323624 0.40691748 0.56494975
000330 c9 4c bd 3e 39 6e 0f 3f db 13 6d be 1f 54 96 bd
       0.36972645 0.5602756 -0.23152106 -0.073402636
000340 27 ec b2 3d af 16 52 be fe 5c 02 be 06 03 34 3e
       0.08736449 -0.20516466 -0.12730786 0.17579278
000350 e6 dc 0c 3d a0 b2 a4 3e fd 56 2e 3e 62 43 03 bf
       0.034390353 0.3216753 0.17025371 -0.51274693
000360 c3 8d 9c 3d bf 13 b9 3d 22 c7 df 3e e1 3f ac be
       0.076442264 0.090369694 0.43706614 -0.33642486
000370 7a a6 d8 3e 93 62 ff 3e 9c fd ea 3e 3c 71 e9 3d
       0.42314512 0.49879894 0.45896614 0.11398551
000380 76 b6 11 be 5c ab 13 bf 92 31 fc bd b7 83 b2 3e
       -0.1422976 -0.5768335 -0.12314142 0.34866115
000390 ac 05 8b be c3 90 66 be 84 c1 16 bd c4 b1 b9 3e
       -0.27152765 -0.2251616 -0.036805645 0.36268437
0003a0 30 55 e4 be 02 22 9b be 26 89 88 bc ff 63 38 3d
       -0.44596243 -0.30299383 -0.01666696 0.04501724
0003b0 b2 b9 ab 3e f5 b6 aa bd fb 02 4e be 44 4d f1 3d
       0.33540112 -0.083356775 -0.20118324 0.117823154
0003c0 4c 63 14 3d 89 3e 54 be b1 b0 be bc 8c 28 45 3d
       0.03622751 -0.2072698 -0.023277612 0.04813437
0003d0 ac 36 07 be b3 4a 88 bd 21 e5 95 be 57 2a ca bd
       -0.1320445 -0.06654873 -0.29276374 -0.09871357
0003e0 e0 2b 46 be 23 3e 83 3e 6e ea 4d 3e e8 c9 ac be
       -0.19352674 0.25633344 0.20108959 -0.33747792
0003f0 93 d8 38 3d 9c 86 01 3f 2e e2 14 bd 64 7b 9d be
       0.045128416 0.5059602 -0.036348514 -0.30758202

fc3.bias f4 [4]
000000 36 2d 02 3e 1e 9a 1c bc 4e 4e 24 be 89 a0 34 3c
       0.12712559 -0.009558229 -0.16045496 0.011024603
