checkpoint_actor.pth (torch_old, 89177 bytes, 10 tensors)

fc1.weight f4 [128, 33]
00000000: b4d4 14bd fb48 fb3d 5b43 cdbd 9a3b 9cbd
00000010: 896f 0bbd 7461 c33e 4f4a a1be 1083 8cbd
00000020: 91a0 7dbe f6cd 8a3d a75a 363d e0dc babb
00000030: 1353 213c bd4f 3fbd da06 293d da2c 0bbc
00000040: 3a30 dcbd 3374 1fbd 39ec bdbd 942a d73d
00000050: 71db db3c 6b79 24be 2c76 e1bc 937e 8a3c
00000060: 8b82 673d 0fb8 1b3d 058f 023e a887 6c3d
00000070: e9c4 3f3d a473 eb3c 3eba eabd 5286 e1bc
00000080: 2aed 07bf bd05 e7bd 8ba9 b63d 99b7 3abd
00000090: 2ff4 2b3e e83e ec3d 07f4 e9bd 8e7f efbc
000000a0: aa6a 5dbd dc64 9dbd 02ab 343d 5e50 b73c
000000b0: d122 7f3a 4202 433c a221 ab3d a597 75bc
000000c0: a1d5 b83d 4b93 a33d 338c 183e c68d e2bd
000000d0: e58c b9bd eff4 fe3c 01d2 bcbc 9094 02bd
000000e0: fe14 2fbc 2b4b 003c 91a3 a93c f575 723b
000000f0: 0faa 103e 8911 9abd ded2 a4bd e7e3 67be
00000100: 8c80 a83c b086 683f 35d1 c8bd 8b3d 3a3c
00000110: 5b9b 2f3d b0ab d9bc 8074 abbe d0a2 17bd
00000120: a624 2abd 3fb9 c7bd d7dc e0bd 02df 94bd
00000130: aa89 6fbd bfa1 dcbc 3522 b13c 294f 1abe
00000140: 6f28 88bc 084c abbd 1a64 b1be 5e4d 8a3e
00000150: dc65 29be 32b6 d5bd ff3d b33c b0d7 d13d
00000160: dc17 3a3b f7a8 9bbd 776a e23d e72d f6bc
00000170: adfb b33d 418f 1e3e 2689 c8bd 12ae 563d
00000180: 6341 0cbe 92d3 e1bc 4549 23be ae8a 783d
00000190: 5f35 5bbd f25f 93bd d78f b23e fab4 9ebd
000001a0: 4455 1c3d 776a 093e 5c45 c1bd 33d1 46be
000001b0: a7af 463d 8644 19bd c71c 8dbd 00c4 b13b
000001c0: 3a5d d83b bb3d 563d efe5 2f3d 1f37 6f3d
000001d0: 906d b1be c37c 00be 86f0 623c bd7d 9cbc
000001e0: 3dc7 4abd 9a7a 01bd dade 883b 9c48 01bc
000001f0: 58fd a33d 6c71 50bc 6e6f c23d 4012 363e
00000200: a209 6c3d e790 83bd 286c aabc b644 ba3e
00000210: 20b0 7cbd 76c9 afbd ef65 223e bc5f b73d
00000220: c21b 25bd 8270 60be 476c 4a3e bf77 863d
00000230: 7138 d83d d608 84bd d35b e1bb 616b 6ebd
00000240: 5ebc ca3c fe62 203d 5ef8 eebb 7965 2fbd
00000250: 3337 073c a501 35bd eccc 653d 1bda d5bc
00000260: e5bf 29bc bd17 b83c 0728 28bb 02b5 de3c
00000270: 19f9 b6bb 5d61 15bd e627 a5bd bf8c 093e
00000280: 9537 c0bd 9884 8dbc a9e1 4bbe fe93 4f3d
00000290: c37a 3a3f 2b18 cdbd 1237 0bbe 32c9 483c
000002a0: 9cb2 36bd 8166 86be 52cc 85be fe57 973d
000002b0: bc22 153c 023f c63c 51cd 383d 7a3b 8c3b
000002c0: 7bec 78bd a49a f539 095d c43d 1880 df3d
000002d0: 8166 163d 1e13 563e f320 233d 7496 3b3e
000002e0: 1e05 ed3c 811d e1bc 5f74 f1ba c287 3d3c
000002f0: aca2 0c3d 6e2b 2a3d ba09 873c 691c 24bb
00000300: 0361 993d 50fd 003c 17f9 3bbd 258f e2bd
00000310: 56ca 163d 0f5c 3fbf 29fb 063c 7342 56bd
00000320: 6fb3 91bc 1ff8 6cbe 3337 dabe a6b2 7abe
00000330: dfad fcbc 7dc4 b53d ee51 7bbb 2181 52ba
00000340: 96ef 4fbd a898 cf3c 9f4a 623d 127c 743d
00000350: b8df bf3d 5512 b93d dc25 9b3c 59ab d5bc
00000360: fb4a cabd ce88 873e c494 65bd f320 653d
00000370: 9826 fe3c 8bfb fe3c c5be bb3c 66df 893c
00000380: 2b9a cabd 8e33 343e 9747 30be bcbd 09bd
00000390: ac01 4cbe 1437 a8bd a7cd 9c3d dcf5 a13d
000003a0: a136 ba3b 8d4c fbbd 9b1b 2ebe 8a73 d4bd
000003b0: 9b16 c4bd 700e 853d d416 893c 37fd 933b
000003c0: 998d 943d 504d 6ebd accb 903c f441 c0bc
000003d0: 891d 4ebd 0f01 58bd 22b9 04bb 7a84 d7bd
000003e0: 75c8 a93d 18fa 4e3e 1b9a 80bc 4334 6eb9
000003f0: 1654 89bc 9879 4e3c ac47 b7bd a925 de3b
-0.036335662 0.12269779 -0.10022613 -0.076285556 -0.034041915 0.38160288 -0.31502005 -0.06860936
-0.24768282 0.06777565 0.044520047 -0.0057026 0.009846467 -0.046706904 0.0412663 -0.00849458
-0.10751386 -0.038929176 -0.092735715 0.10506168 0.026838036 -0.16061942 -0.027522169 0.016906058
0.05652098 0.03801733 0.1274987 0.05774656 0.046818648 0.028741665 -0.11461304 -0.02752987
-0.5309626 -0.11280391 0.089190565 -0.04558525 0.16792367 0.11535436 -0.11423498 -0.029235628
-0.0540568 -0.07685253 0.0441084 0.02237719 0.0009732666 0.011902394 0.08356024 -0.014989768
0.090251215 0.07987078 0.14897232 -0.110621974 -0.090600766 0.031122653 -0.023049356 -0.03187996
-0.010686157 0.007830421 0.020707877 0.0036996577 0.14127372 -0.07522876 -0.08048032 -0.22645532
0.020569108 0.90830517 -0.09805528 0.011367212 0.042872768 -0.026571125 -0.3348732 -0.037020504
-0.041538857 -0.0975213 -0.10979622 -0.07269098 -0.058480896 -0.026932595 0.021622756 -0.1506926
-0.016620843 -0.08364111 -0.34646684 0.2701215 -0.16542763 -0.104351416 0.021880148 0.10246217
0.002839557 -0.07600587 0.11055463 -0.030051185 0.08788238 0.15484335 -0.09791784 0.0524121
-0.13696818 -0.027566705 -0.15945919 0.06067913 -0.053517696 -0.071960345 0.34875366 -0.07749362
0.038167253 0.1341952 -0.094370574 -0.1941574 0.04850736 -0.037418865 -0.068902545 0.0054249763
0.0066029103 0.052304965 0.04294389 0.058402177 -0.34653902 -0.12547593 0.013851291 -0.019102925
-0.049506415 -0.031611063 0.0041769566 -0.007890847 0.08007306 -0.012722354 0.0949391 0.177804
0.057626374 -0.06424122 -0.020803526 0.36380547 -0.061691403 -0.085833475 0.15859197 0.08953807
-0.040309675 -0.21917918 0.19767867 0.065658085 0.1055764 -0.06446998 -0.0068774014 -0.058207873
0.024748024 0.039156906 -0.0072927913 -0.04282138 0.008252907 -0.04419102 0.05610363 -0.026104977
-0.010360693 0.022472257 -0.0025658624 0.02718592 -0.005583894 -0.036469806 -0.08064251 0.13432597
-0.093856014 -0.01727514 -0.19910301 0.050678246 0.7284357 -0.10014375 -0.13595226 0.012255
-0.04460393 -0.2625008 -0.26132447 0.0738983 0.00910252 0.024199966 0.04511768 0.004279551
-0.0607724 0.00046845258 0.095880575 0.10913104 0.03671885 0.2090573 0.039826345 0.18319112
0.028933104 -0.027479889 -0.0018421522 0.011568012 0.034334823 0.041545324 0.01648413 -0.0025041348
0.07489207 0.007872894 -0.045891847 -0.11062459 0.036814056 -0.74749845 0.008238592 -0.052309465
-0.017785756 -0.23141526 -0.4262024 -0.24482211 -0.030844627 0.08875368 -0.0038348394 -0.0008030106
-0.050765596 0.025341347 0.055246945 0.059688635 0.09368843 0.090367 0.018938951 -0.026082681
-0.09877583 0.2647156 -0.056050077 0.055939626 0.031024262 0.031125804 0.022918114 0.016830157
-0.098926865 0.17597792 -0.1721481 -0.03362821 -0.19922513 -0.0821363 0.076564126 0.07908222
0.005682782 -0.1227046 -0.17002718 -0.103736 -0.09574624 0.06496894 0.016734518 0.0045162695
0.0725357 -0.0581792 0.017675243 -0.023468949 -0.050321136 -0.052735385 -0.002025195 -0.10523315
0.08290187 0.2021259 -0.015698483 -0.00022716918 -0.016763728 0.012602232 -0.08949217 0.006779392

fc1.bias f4 [128]
00000000: 4505 523d 4711 61bc 4351 35be a7c0 a2bd
00000010: ae52 80be 5b65 a0bd 382b 93bd 9154 cfbd
00000020: 2d9b 85be 3efa b33d 1ac8 bdbd 73f4 1d3e
00000030: b9ae 433e 378c 35be ef2e 63be 1cae a6bd
00000040: a610 89be 9cb6 77be 0e61 77be bfd3 febd
00000050: cb58 66be 0ec0 22be 729d 4dbe 83b4 94be
00000060: 9654 02bc dfcd 673d d4c9 3c3d d102 98be
00000070: 7ba6 8ebe fe37 283d 523c 9abb fbfa 3bbe
00000080: a81b f7bd bebc 08bd 7d4a b7bd 03de 74bd
00000090: 3750 84be 5ac3 b23d e886 57be b1de 45be
000000a0: 6108 96be 94a5 9d3e 37f8 32bd 1588 15bd
000000b0: c147 69be e89f d03d f0e2 6bbe 91dc d8bc
000000c0: c87c a53d f496 04bd 49a2 4c3e 569b 633c
000000d0: 8b60 78bd 9e6c 1cbe d1dc 143e 0d46 c93d
000000e0: 1b49 9dbd 5f6e c73d 2324 4fbe 39b4 30bd
000000f0: 8453 1fbe ed4f 96be c9ca 0a3e 2117 debd
00000100: deee 51be 4dd5 6dbe 9635 e43d 7593 0c3e
00000110: ba44 fabb 46ac 8f3d 93b1 aabe 4bd2 ddbd
00000120: 47c6 f3bd d60c f3bd 2663 ce3b 8dd0 f1bb
00000130: e9d1 623d d44a 1cbe 3dd0 2dbe c8ec b9bd
00000140: ff16 b73d 753a ec3d 02f8 a13d d588 ec3d
00000150: 9837 0dbe 761a 35be 7b0d 2fbe 687e 843b
00000160: 1ea4 2b3d c008 9bbe d9a2 4bbe 7cba c3bd
00000170: 97c9 56be 9fd9 cf3b dee1 85bd b7e4 db3d
00000180: 7a45 40bd 5dda 1cbe 0268 8a3d 9b14 c9bd
00000190: 8839 48be cf3c b13d 41ef 1cbe b9f5 12be
000001a0: 34a0 c73d f3b8 73be e665 74bd f5f8 3cbe
000001b0: b783 97bd 48b0 87bd 1894 22be b89c 4abe
000001c0: ce11 113e f51a 2e3e b61e 80be c3b9 31be
000001d0: 217e 033d 2722 023e b0b8 b0bd cfd4 5cbe
000001e0: e2ce 85be f81f e3bd 48f1 ebbc c9e5 fbbd
000001f0: 6d4a 4b3d ef9c 153e 5bd8 e6bb e18c ddbc
0.051274557 -0.013737029 -0.1770678 -0.07946902 -0.2506308 -0.07831832 -0.07185978 -0.10123552
-0.26094952 0.08787964 -0.09266682 0.15425281 0.1910962 -0.17729269 -0.22185872 -0.081386775
-0.26770514 -0.24190754 -0.24158117 -0.12442731 -0.2249481 -0.15893576 -0.20079592 -0.2904397
-0.007954737 0.05659282 0.046090916 -0.2968965 -0.2786139 0.041069023 -0.004706898 -0.1835746
-0.12065822 -0.033383124 -0.089497544 -0.05978204 -0.2584245 0.087286666 -0.21047556 -0.19323231
-0.29303268 0.3079039 -0.043693747 -0.03650673 -0.22781278 0.1018675 -0.23035789 -0.026472362
0.08080441 -0.032370523 0.19983782 0.013892015 -0.060638946 -0.15275809 0.1453736 0.09827814
-0.076799594 0.097378485 -0.20228629 -0.043140624 -0.15559202 -0.29357854 0.13553919 -0.10844255
-0.20501277 -0.23225899 0.11143033 0.13728125 -0.0076375874 0.070152804 -0.33338603 -0.10831126
-0.11903053 -0.11867683 0.0062984405 -0.0073795975 0.055375967 -0.1526292 -0.16973968 -0.090783656
0.08939933 0.11534587 0.07908632 0.11549536 -0.13790739 -0.17685875 -0.17094986 0.004043389
0.04190456 -0.30280113 -0.1988634 -0.095570534 -0.20975338 0.006343081 -0.06537221 0.10736983
-0.046941258 -0.15317674 0.06758119 -0.09818383 -0.19553196 0.086541764 -0.15325643 -0.14351548
0.09747353 -0.23801021 -0.05966749 -0.18454345 -0.073981695 -0.0662542 -0.15876806 -0.19786346
0.14166948 0.17002471 -0.2502343 -0.17356019 0.032102708 0.1270834 -0.08628976 -0.21565555
-0.26134402 -0.11090082 -0.028801575 -0.122996874 0.049631525 0.14610647 -0.0070448346 -0.027044715

bn1.weight f4 [128]
00000000: 3aaa b03f c88b ba3f 82ed b43f 7602 a33f
00000010: 14cc b33f bdb3 b83f 5436 a43f 377d bd3f
00000020: 0030 9d3f 5aff a63f db57 c73f 198a 9a3f
00000030: 2408 a83f 8122 a73f 434b be3f 2b1f b53f
00000040: 017a a13f 9943 9b3f 1ef3 ab3f fbf1 943f
00000050: 264e a03f 4031 983f b0e5 9c3f 5b2d ad3f
00000060: ed0d 9f3f 242b 9e3f 0762 b13f 64b0 923f
00000070: ef3c b33f b801 ac3f 56f0 a23f 0f4c a23f
00000080: a4c6 9e3f e141 993f 1022 a63f 1aa5 c43f
00000090: 3c66 b53f 79c8 a43f 2826 ad3f 5414 953f
000000a0: c49a c03f bd13 a53f cab5 b03f 95a6 ae3f
000000b0: fb68 a03f 8b5c ab3f aa1b c63f 6be9 b33f
000000c0: 0618 a93f 4d61 b13f 23f4 933f be73 9e3f
000000d0: 9861 b23f 4733 b23f 2e1d b43f 7a29 d13f
000000e0: fb37 a73f 3c3a b13f dedf b03f 060d b73f
000000f0: 5cfa 9e3f ff8e a83f 498f c13f 6fa4 c73f
00000100: d9c7 993f f6db 923f 7d12 9f3f a0c2 af3f
00000110: e7b1 993f dad1 b03f 8726 a53f 60bf 983f
00000120: 70f0 b63f 3c9e a03f 182b a53f d13f b43f
00000130: 65e3 a13f 82ef a03f c048 c63f 49db a43f
00000140: 23b3 ab3f b438 b63f 38e1 a53f b4cb a33f
00000150: ff35 a53f e335 af3f 52c7 9c3f 2a44 a83f
00000160: cf01 c43f 6ab0 b93f 5c67 b93f 792c a73f
00000170: 8722 c83f 0734 9b3f 48bc a33f 0407 ba3f
00000180: 6679 983f ea0c aa3f 1bcd b63f 9d48 b83f
00000190: eb56 a13f 0db7 a03f 441d 943f 8324 b33f
000001a0: 8445 b03f 6b25 993f 25dc b03f b11f c13f
000001b0: 2aa4 ac3f b8bb a33f 1add ad3f f851 b13f
000001c0: 4268 ad3f ae36 a83f 5e39 a73f 5795 8a3f
000001d0: 3f69 b53f cc30 bb3f a989 b43f 03b9 ab3f
000001e0: 6009 af3f 0a0b b83f 224e 9f3f 5069 b53f
000001f0: 8e84 bd3f cfb7 a93f dd5f 9f3f 1390 af3f
1.3801949 1.4573908 1.4134982 1.2735126 1.4046655 1.4429852 1.282908 1.4803838
1.2280273 1.3046677 1.5573686 1.2073394 1.3127484 1.3057405 1.4866718 1.4150137
1.2615358 1.2130004 1.3433568 1.1636347 1.2523849 1.189003 1.2257595 1.3529466
1.2426125 1.2356915 1.385804 1.146008 1.400297 1.3438025 1.2729595 1.2679461
1.240437 1.197323 1.2979145 1.5362885 1.4171824 1.2873679 1.3527269 1.1646829
1.5047231 1.2896649 1.3805478 1.3644587 1.2532037 1.3387617 1.5477192 1.4055609
1.3210456 1.3857819 1.155888 1.2379072 1.3936033 1.3921899 1.4071405 1.6340783
1.3063959 1.3845897 1.3818319 1.430085 1.2420154 1.3168639 1.5121852 1.5597056
1.2014114 1.1473377 1.2427517 1.373127 1.2007416 1.3814042 1.2902383 1.1933403
1.4292126 1.2548289 1.2903776 1.4081975 1.264752 1.2573092 1.5490952 1.287942
1.3414043 1.4236054 1.2959356 1.279654 1.2907103 1.368832 1.2248328 1.3145802
1.5313052 1.4506962 1.4484668 1.3060447 1.5635537 1.2125252 1.2791834 1.4533391
1.1912048 1.3285191 1.4281343 1.439716 1.260465 1.2555863 1.1571431 1.3995517
1.3771214 1.1964544 1.3817183 1.5087796 1.3487599 1.2791662 1.35831 1.385314
1.3547442 1.3141687 1.3064382 1.0826825 1.4172744 1.4624267 1.410451 1.3415836
1.3674736 1.4378369 1.2445719 1.4172764 1.4806077 1.3259219 1.245113 1.3715843

bn1.bias f4 [128]
00000000: 4c34 95bd 5348 ca3d 7aea 683d f29b 51bd
00000010: 86bd b13d eac0 d73d 4e35 0cbd ecf1 b3bc
00000020: 4e98 f53c 7e6e 633e ad6b 933d 5193 03be
00000030: 959f adbd e03a 573c 5e85 d33e b186 8cbd
00000040: 76ca b3bc 53c1 3f3d 16fe 31bd d10c c0bd
00000050: 768b 76bc 5b1c 27be 1aa1 b3bd b706 553e
00000060: 10f0 953b 65b6 92bd 3cea 88bc 2d85 e8bd
00000070: d088 553e 7fb2 403e bda7 f43c 50b7 1dbc
00000080: 2048 0abe 7f81 d8bc 64a3 acbd e92c d43d
00000090: bfe6 38bc 3878 09be 0659 733d cf1c e53c
000000a0: d86f b43e 72f1 46bd a7b8 953e 8af6 3f3d
000000b0: 9237 903d af8d 3dbd ca89 2d3e 6b81 9fbd
000000c0: f42a 16be 3da9 65be 664c 0abd d263 4a3d
000000d0: acc8 21be 71e0 f0bc 9aca cdbc 2a4a f43d
000000e0: 8223 0a3e b76b 953c 1cd7 09bc 3206 3f3d
000000f0: 3c9a 2e3e 60ae dd3c 7c27 103e 4530 35bd
00000100: da55 66bd 4675 1cbd f1ed a1bd 9a17 613e
00000110: f919 69bb e1ed 0c3d d04a 3fbe 6af7 1c3e
00000120: 8acc c2bd efde 0b3e 02f0 443e 9753 7b3c
00000130: fa2c 6f3d b898 ec3d d7a4 53be dafb b7bc
00000140: 83fb 7c3b 1b24 bc3c 3430 9c3d c18b 653d
00000150: 3cc4 8b3b c813 e73d 49dd 1fbe 7c4a b43d
00000160: 982c 11be 5639 d53c 5aa6 05bc 301f 77be
00000170: 886a a73d 78ab 1b3e 7f1b e43d 1bdd 203e
00000180: fddf b83c c49a bf3d 11e1 a93d 8cc9 1d3e
00000190: a24d 7d3d 7729 fcbd 5fd1 d53d b0c1 123e
000001a0: 9fe5 1b3d 2e2f 153e 8db3 38be 4130 debc
000001b0: e598 33bd c145 34be c0ac b2bd 97dc 55bd
000001c0: 0edb 8b3b 63b7 0f3e 2161 3f3e e103 84bd
000001d0: 4efb c23d 3b99 2fbe 2aea cabd fe03 e33d
000001e0: 34c7 39bc 2b12 b3bc f6c4 653d cf8b 9f3e
000001f0: 6ff5 bd3d 7c6e 5cbd 47f3 833d 3209 fbbd
-0.072853655 0.09877076 0.05686424 -0.05117411 0.08678727 0.10534842 -0.034230523 -0.021965943
0.029979851 0.22210118 0.07198272 -0.12849165 -0.084777035 0.0131365955 0.4131269 -0.06861628
-0.021947127 0.046815228 -0.043455206 -0.093774445 -0.0150478985 -0.1631941 -0.08770962 0.20803343
0.004575737 -0.07163695 -0.016713254 -0.11353526 0.20852971 0.18818091 0.02986514 -0.009626225
-0.13504076 -0.026428936 -0.08429602 0.103601284 -0.011285483 -0.13424766 0.05941107 0.027967839
0.3524158 -0.048570104 0.2924244 0.046865977 0.07041849 -0.046277698 0.16947094 -0.077883564
-0.14664823 -0.2242784 -0.033764265 0.049411602 -0.15799206 -0.029403897 -0.025121022 0.11928208
0.13490108 0.018239839 -0.0084131025 0.046636768 0.17051023 0.027060688 0.14077562 -0.044235487
-0.05623422 -0.03819778 -0.07906712 0.2198166 -0.003556846 0.034406547 -0.18680882 0.15328756
-0.09511669 0.13659261 0.1923218 0.015339754 0.058392502 0.11552566 -0.2066835 -0.02245896
0.003860206 0.022966435 0.076263815 0.056041483 0.0042653363 0.1128307 -0.15611757 0.08803269
-0.14177167 0.026028316 -0.008157337 -0.24132991 0.08174616 0.15202129 0.11138057 0.15709345
0.022567743 0.09355691 0.08294881 0.15408915 0.061841615 -0.12312596 0.10440325 0.14331698
0.03806078 0.14568779 -0.18037243 -0.027122619 -0.043846983 -0.17604734 -0.08724356 -0.052212324
0.0042680567 0.140348 0.18689395 -0.06446052 0.09520589 -0.17148297 -0.099079445 0.11084746
-0.011338998 -0.02185925 0.05609604 0.31161353 0.09275328 -0.053816304 0.06442886 -0.12257613

bn1.running_mean f4 [128]
00000000: c027 bf3d 976d 883d e102 803e cbe7 013f
00000010: cb15 233e 6423 043e 82d5 9c3d 79db 993e
00000020: bb71 d03e cf34 e13d 60ac 493e 6af9 063f
00000030: b19d 173e 6ff9 ed3d ee65 9a3e d647 943d
00000040: 3e22 133d 0c19 ea3e 29c5 023f fcf6 123e
00000050: e817 823e a415 aa3e 8e20 603e e303 483e
00000060: 9c17 0c3e 45c5 de3e f6ad 923e b9af 3a3e
00000070: 57d5 953e f8f0 2e3e 22ad 333f 8962 793e
00000080: 5027 cd3e 304d 813e 5eb9 223f fcc3 8f3e
00000090: b300 073e 4ff0 0b3e 9fb7 b93e e3ac 0a3e
000000a0: 2c1d 1d3e c8b7 cc3e b4b0 6d3e abb4 f33e
000000b0: 8fb3 0b3e 84bb 4e3f afa8 873c 1ef1 de3e
000000c0: 70aa 123f daac a63e b71e fe3e 12dd 8e3d
000000d0: ca42 c93d b114 ff3e a01e fd3e 2742 383f
000000e0: ca46 9e3e 305a 9c3e 3293 9d3d e59e 9d3e
000000f0: 83e6 053e af02 953d 9886 d13e 3558 543e
00000100: 0b6b 4b3e e9b2 cd3c ce9b 013f 92ca 563f
00000110: 2cf2 283f 6cbd 133f 8979 a53e 0aaf c13e
00000120: c577 033e dda1 403e 9e92 b73e 59d9 f93d
00000130: ef1e 7f3e 2346 673e 4911 293f 1a6b 6a3f
00000140: 1c06 dd3e 929e bb3e f7ae 053e cd1b 1d3f
00000150: 99bb 343d 7764 633e 0b4b f03c f87c b73e
00000160: 3ed1 973e 981b 193e f3a4 c43d 6155 c43d
00000170: cf8a 9f3d f1d7 1c3e a06b c93e 4727 883f
00000180: b33b 983e d940 4f3f cd43 c43e 744c ab3e
00000190: b3a9 113e 9333 5c3e 3a12 353d a636 a43e
000001a0: 5bc1 023e 389a c03d 9ca8 4d3e 0f75 3a3e
000001b0: 0fc3 323e b95e 073f 566d 9c3e 4563 ac3e
000001c0: da22 0f3e 3c58 eb3f 2c8b 613e 158c 373d
000001d0: 04e2 9a3e 9063 7d3e 4b0a 763e a205 4f3d
000001e0: e21b 913d ae32 883d 37f1 983d b5c0 033f
000001f0: 86f5 7c3e 44cd 303f 6708 323e 9805 243f
0.093337536 0.066615276 0.25002196 0.50744313 0.15926282 0.12904125 0.07657911 0.30050257
0.4071177 0.109964006 0.19694662 0.52724326 0.14806248 0.11619841 0.3015589 0.07240264
0.035921328 0.45722234 0.5108209 0.1435203 0.25408864 0.33219635 0.21887419 0.19532733
0.13680881 0.4350988 0.28648347 0.18231095 0.29264328 0.1708411 0.70186055 0.24353994
0.40069056 0.25254202 0.635641 0.28079212 0.1318386 0.13665889 0.36272904 0.13542514
0.1534316 0.39983964 0.23211938 0.47598776 0.13642715 0.80754876 0.016559927 0.43543333
0.57291317 0.3255375 0.4963281 0.069757596 0.09827192 0.49820474 0.49437428 0.7197594
0.30913383 0.30537558 0.07694091 0.3078529 0.13076214 0.072759025 0.40923 0.20736773
0.19865052 0.025109725 0.50628364 0.8390285 0.65994525 0.5771091 0.32319286 0.37828857
0.12838657 0.18811746 0.35854048 0.12199659 0.24914144 0.22585349 0.66042 0.91569674
0.43168724 0.36644417 0.13055025 0.61370546 0.04412422 0.22206293 0.029332658 0.3583753
0.29651827 0.14951932 0.09601774 0.09586597 0.077901475 0.1531675 0.39339924 1.0636986
0.29733047 0.80958325 0.38332978 0.33456767 0.14224891 0.21504049 0.044206835 0.32072943
0.12769072 0.09404415 0.2008385 0.18208717 0.17457221 0.5287891 0.30552167 0.33669487
0.13978139 1.8386302 0.22025746 0.044811327 0.3025056 0.24745011 0.24027364 0.05054248
0.07085396 0.066502914 0.07467883 0.5146592 0.24703035 0.6906321 0.17386018 0.64071035

bn1.running_var f4 [128]
00000000: 1d47 803d f0bb c83c b326 603e 82d1 db3e
00000010: 2b39 a23d f01c 783d 2459 463d 35a0 3a3e
00000020: e3a2 5d3e 9d81 843d f356 a23d 5b72 b73e
00000030: a8b3 d43d 71ce c93d 3b21 7d3e 6468 133d
00000040: 6310 ce3c e1bf 153f 2475 f93e ffe3 063e
00000050: 4e0a 603e 4ee2 b93e 5020 0d3e fe70 da3d
00000060: 15b2 173e b6ea 8b3e 2f11 2f3e 13ae 0b3e
00000070: 61b7 373e 1b07 053e 69ff 4f3f 5863 5d3e
00000080: 9435 863e 76f4 0e3e b5ad fb3e 44f9 453e
00000090: 1b96 a13d 7055 b63d 0a0e 773e 73a4 a53d
000000a0: e1f7 d83d 6803 a43e 3116 383e 5a4c aa3e
000000b0: 9392 ec3d 5fbb 4b3f 4150 843c 7de6 823e
000000c0: a813 163f b20a 903e 0a98 963e f9d4 093d
000000d0: ea98 903d 8a85 da3e 1b71 cc3e 0b8d d33e
000000e0: 11aa 8f3e c949 3b3e 2c4e 663d 7950 fb3d
000000f0: f249 c03d 0f0b 593d bfd6 533e bf21 d33d
00000100: b57c 043e c7e2 7e3c ebd1 963e ade8 423f
00000110: fd72 303f b4f5 913e 0003 553e 14ff b83e
00000120: 0c1a c43d 3ea7 e43d 9ac2 913e 099c 813d
00000130: 6754 863e 8169 fd3d 5b0b 383f 1525 233f
00000140: cc4e c13e 4227 be3e 7b9f b83d 6a16 f13e
00000150: e330 d33c 9de0 c13d 5036 9e3c d45e 953e
00000160: baee 2a3e d54a aa3d 4335 3a3d 75cc 553d
00000170: a520 3e3d 083e 8c3d b12a 9a3e 40a9 d13e
00000180: b53f ae3e 2472 d83e 4072 933e 15f5 673e
00000190: 1028 8a3d 610f 003e c5a7 f83c e256 593e
000001a0: be96 8d3d 630d 873d 30e9 f13d 3b6d 003e
000001b0: 130e d33d 23f9 003f c5ee 483e 6086 783e
000001c0: 537b 903d c1a3 2d3f 89ce 433e 2f41 1f3d
000001d0: 2793 483e 2bfb 0d3e 4a02 143e 97c5 043d
000001e0: 8cc4 613d 76fc 943d b1d6 3e3d 7825 ce3e
000001f0: 71dc 173e 563b 693e 03a8 e73d 57b2 063f
0.06263564 0.024503678 0.21889763 0.4293328 0.0792106 0.060574472 0.048424855 0.18225177
0.21644168 0.06470034 0.079267405 0.35829434 0.10385829 0.09853829 0.24719708 0.035988227
0.025154298 0.5849591 0.48722184 0.13172911 0.21878931 0.3630547 0.13781857 0.10666083
0.14814027 0.27327508 0.17096399 0.13640623 0.17941047 0.12990992 0.812491 0.21619928
0.26212752 0.13960442 0.49155965 0.19333369 0.078899585 0.08903015 0.24126449 0.08088007
0.10594154 0.3203385 0.17977215 0.33261377 0.11551394 0.7958278 0.01615155 0.25566474
0.58623743 0.2813316 0.29412872 0.033650372 0.07060416 0.42680007 0.39930043 0.41318545
0.28059438 0.18289866 0.056226894 0.12271208 0.09389104 0.052989062 0.20687388 0.10309171
0.12938197 0.015556998 0.2945703 0.76136285 0.6892546 0.2850777 0.20801926 0.3613211
0.095752805 0.111647114 0.28468782 0.063285895 0.2623627 0.12373639 0.7189233 0.6372846
0.3775543 0.37139326 0.090147935 0.47087413 0.025780147 0.0946667 0.019313008 0.2917391
0.1669263 0.08315054 0.04546095 0.05219694 0.04641785 0.06847769 0.30110696 0.4094944
0.3403298 0.42274582 0.28798103 0.22652085 0.067459226 0.12505867 0.030353436 0.2122455
0.069135174 0.0659435 0.11812055 0.12541668 0.10305419 0.5038015 0.19622333 0.2427001
0.07054772 0.67827994 0.19121756 0.038880523 0.19587384 0.13865344 0.14453998 0.032415
0.055119082 0.072747156 0.046591464 0.4026296 0.14830185 0.22776541 0.113113426 0.52615875

fc2.weight f4 [128, 128]
00000000: dded 1d3e 1130 473d ea95 e03d 92ff 5ebd
00000010: 8a48 e63c c62a 1f3e bbbf bd3c 8747 bfbc
00000020: 173c 513e 585b 143d c98d 3cbe 4a8c 093e
00000030: edec 893e cfa1 8cbe b369 39be de6e 483b
00000040: fbba 8d3d 7690 2abd 448a 743e 0aea 0bbe
00000050: d892 87be ae29 2a3d bbfa 413c a3e7 cd3d
00000060: 2a4f b4bd 3ef8 623e 29fd 89be 5d70 d7bd
00000070: 2018 b3be d229 213d 4b17 72bd 9c28 f33d
00000080: 2620 0bbe 2fab 29be 0b49 3b3d 5536 ca3d
00000090: 15c9 9cbe d32e 603d a27e a3be 5393 0c3d
000000a0: 932d 493c 6382 f3bc de2d 30be 70a6 1cbe
000000b0: f06f 35be 5b9e 563c fedd 0fbe f850 403e
000000c0: 9804 35bb b257 45bc fa6a 3cbd 80ee 903c
000000d0: 052f 853d 3cff 8cbd 469b 32be 60d8 743e
000000e0: 64c4 adbd 3761 2fbe 10c3 c03d 6790 c4bd
000000f0: 7bfe a9bd f8f6 36be f6dc 9dbd a495 af3d
00000100: e220 003d cb1f 1dbb beab da3c f747 02be
00000110: d743 443e 85a7 34be 25d8 023e 70db 653d
00000120: 2848 4cbe 611c a1bc 378b 103e 1f5b 42bd
00000130: f539 1bbe 5f14 5a3d 65a5 2c3e 287d 8e3c
00000140: 3f89 95bc e206 223d 08ca 90bc 2cf0 173d
00000150: ab41 33bc 40ed f2bd a624 11be 6e8b 8d3e
00000160: 804c 843d d646 813d fb98 103e 3a77 36be
00000170: 1d0e 4d3d 9e15 813e bef8 a4be 4d6f 223e
00000180: a713 5f3b d9fa 3bbd 4fec 93be 1b1a e1bd
00000190: cdee 24be 455e 1dbe 6c06 773d 3043 293e
000001a0: 11b6 24be a0a5 253d 3d51 55be c1e5 293d
000001b0: 06b8 bbbd 9c7a 90be 1ac6 b1be fe9d 15bd
000001c0: fb47 6e3e 2979 b53d 7c20 ad3d 6fad cfbd
000001d0: 0094 293e 625f 76bd 9811 f6bb a878 393e
000001e0: a880 c1bc 5df7 1c3d 2e02 673c 465f 4ebe
000001f0: 16b9 edbd 05e2 8cbd 4be3 6b3c da90 27be
00000200: c1d7 8fbd 0daa 95bd b885 31be 92ab 693e
00000210: 3d78 09be b576 cebd a79b 893c bc9e 8bbe
00000220: 2fbc ef3d d293 0abc a2d5 acbc 046c 503d
00000230: c852 cd3d 5241 60bd f6f6 743e 8f26 96be
00000240: b03a 86be b938 dcbd bd63 403e b992 01be
00000250: b534 1dbe 27af 653c e528 843d 9158 093e
00000260: 8623 59bd 3f46 90bd 288d f13c 79cd 91be
00000270: efaf 20be 4fc1 94bd ccd3 fd3d 35a4 403e
00000280: ac6f 3cbe 8b02 803e a522 01be a060 3f3e
00000290: cd3a 533e d7a0 5f3e 5d6f 2b3e 7eef c3bd
000002a0: e5a4 e2bd fd1c e63d 5340 8bbe c3af 003e
000002b0: 238b 203d b508 33be 2154 c43c 00d8 663c
000002c0: 4aea 5c3e 4feb b6bd 0845 03be 1e5a 2c3e
000002d0: 16aa 3dbd dbc4 2a3e 546a 15be e0a3 233e
000002e0: 247d 523e 07f2 17be e5e3 133e 18bd 23be
000002f0: b26e 913e 95b8 3b3c f3e7 ec3c d843 4f3d
00000300: c629 9f3d 4d24 223e 7906 97be 379d 703d
00000310: a128 fe3d dfa5 10bc 730d 14be 1a23 0e3e
00000320: fd47 a23e bbd9 483e 9393 02be 8ae5 3b3d
00000330: 794c 593d 70fa 203e a6db ddbd 1bd9 183e
00000340: 62b6 0ebe 1a61 c5bc db75 bcbc e109 0d3e
00000350: f552 01bb 9737 fabd 33d1 8cbe c934 ca3d
00000360: 93a6 14be 1208 0dbe 9c39 95bd 5cd3 0cbe
00000370: 42da dc3e 793a 503d beef 0ebe b80f 48bd
00000380: 5746 3a3d e081 8c3d 9f33 d7bd aeda c4bd
00000390: 5cb8 fa3b 031f 2cbe 9839 68bb b148 9dbd
000003a0: 1c0b 2a3e c125 1bbf c468 b3be 2952 69be
000003b0: 1eb5 24be 68d4 8cbd 1c9c f7bd 668a 423e
000003c0: 0984 123e c655 633d 0254 b5bd 41c9 303e
000003d0: 0684 553d cf1e 85be 3453 f53d 6cb9 8fbd
000003e0: b491 3f3e c419 e1bd cf63 a8bd f932 893d
000003f0: 04cb 543e 7818 023e a38a c13d a039 aebe
0.15422769 0.048629824 0.10966094 -0.05444295 0.028110761 0.1554366 0.023162713 -0.023349537
0.20433079 0.036219925 -0.18413462 0.13432422 0.26938573 -0.274672 -0.18106727 0.003058366
0.06920429 -0.041641675 0.23880869 -0.13663498 -0.2647922 0.041543655 0.011839564 0.10053947
-0.08804162 0.2216501 -0.26950958 -0.105194785 -0.34979343 0.039346524 -0.059104245 0.1187298
-0.13586482 -0.16569208 0.045723956 0.09873644 -0.30622163 0.054732155 -0.3193255 0.034320187
0.012278932 -0.02972526 -0.17204997 -0.15297866 -0.17718482 0.013099278 -0.14049527 0.18780887
-0.0027621146 -0.012044834 -0.04600046 0.01769185 0.06503109 -0.068846196 -0.17442045 0.23910666
-0.08484724 -0.17126928 0.09412205 -0.09597855 -0.083004914 -0.17867649 -0.077081606 0.085734636
0.03128136 -0.002397525 0.026693221 -0.12722765 0.19166504 -0.17642029 0.12777765 0.056117475
-0.199494 -0.019666852 0.14115606 -0.04745018 -0.15158828 0.053242084 0.16859968 0.017393664
-0.01825392 0.039557345 -0.017674461 0.03709428 -0.010940949 -0.11861658 -0.14174137 0.2764544
0.06459904 0.06312339 0.14120857 -0.17818919 0.050062288 0.25211805 -0.32221025 0.1586277
0.0034038813 -0.045893524 -0.28891227 -0.10991307 -0.1610672 -0.15367992 0.06030886 0.16529536
-0.16085078 0.040441155 -0.20831771 0.041478876 -0.09165959 -0.28218544 -0.34721452 -0.036527626
0.23269646 0.08861 0.084534615 -0.10140502 0.16560364 -0.060149558 -0.0075094216 0.18112433
-0.023620918 0.03832184 0.014099641 -0.20153531 -0.11607568 -0.06879047 0.014397453 -0.1636385
-0.07023574 -0.07307825 -0.17336166 0.22819355 -0.13424774 -0.10081235 0.016797854 -0.27269542
0.11705815 -0.008458095 -0.021097962 0.05088426 0.10025555 -0.054749794 0.23922333 -0.29326293
-0.2621665 -0.107530065 0.18788047 -0.12653627 -0.15352137 0.01401881 0.064531125 0.13412692
-0.053012393 -0.070446484 0.029486254 -0.28477076 -0.15692113 -0.07263433 0.12393913 0.1881264
-0.18401974 0.2500194 -0.12610872 0.18689203 0.206279 0.218387 0.167417 -0.09567164
-0.110666074 0.11235998 -0.27197513 0.12567048 0.03919519 -0.1748379 0.023965897 0.014089584
0.21573749 -0.089316 -0.12819302 0.16831252 -0.046304785 0.16676657 -0.14591342 0.15980482
0.2055555 -0.1483842 0.14442404 -0.15990102 0.28404766 0.011457582 0.028919196 0.05060181
0.077716395 0.1583416 -0.29497126 0.05874368 0.12410093 -0.008828609 -0.14458255 0.13880578
0.31695548 0.19614308 -0.12751608 0.045873202 0.053051446 0.15720534 -0.1083291 0.14926569
-0.13936761 -0.024094153 -0.023005417 0.137733 -0.0019733284 -0.12217634 -0.27503356 0.09873349
-0.14516668 -0.1377261 -0.07286379 -0.13752502 0.43135267 0.050837014 -0.13958642 -0.048843116
0.045477238 0.06860709 -0.10507893 -0.09612022 0.007651372 -0.16808705 -0.003543472 -0.076798804
0.166058 -0.6060448 -0.35040867 -0.22785248 -0.16084716 -0.06876451 -0.120903224 0.18998107
0.1430818 0.05550172 -0.08853914 0.17264272 0.05212786 -0.26000068 0.1197876 -0.07017788
0.18707925 -0.109912425 -0.08222162 0.066991754 0.2078057 0.12704647 0.09450271 -0.3402834

fc2.bias f4 [128]
00000000: af20 7b3d 3eca 573e d805 443e 8b85 7fbd
00000010: 65f2 b43d ba02 c1bc 9e08 a83c bac9 7d3d
00000020: 9f4c 29bd 74b2 89be 2583 81bc 394f 2d3d
00000030: 3d54 043e 7fe2 6d3d 5df9 61be 258b 933d
00000040: 3f20 d83d ca02 5e3e 41c4 2abc eedf 02bd
00000050: 2fc1 1ebe 57e3 243e 8931 78bd 73fd 73bd
00000060: a34a 8b3d 036c fe3d a3e7 f1bd 1407 62be
00000070: b9eb 5bbe df6a 933c 9be5 7abe e531 70bd
00000080: 8515 023e 2fc9 0ebd 4f5d 923c 6677 2abe
00000090: b0af e33c c851 eebd b33e 0dbe 67bb c13d
000000a0: 1585 cebd ec05 10be 9c42 7ebd 3245 973d
000000b0: 3014 413e c7a8 e9bd 4e2c a43d f737 22be
000000c0: 694e 183e 5228 d83d 28c2 3ebe 6dff f23d
000000d0: 5a80 643c e60b 72bc d3ba 9a3d a5f4 2abe
000000e0: 607c 51be 1447 0bbd 071a 29be 55d8 d9bd
000000f0: 6380 ac3d ebf7 18be d474 c4bd 29dd 443e
00000100: cf99 da3b 8729 233c 1916 91bd cfd4 3fbe
00000110: 0879 b2bd edf4 09be 0b3f 6fbe f606 e8bd
00000120: 65db ffbd b851 713c 0044 6bbc ba16 be3c
00000130: 0d89 ff3d 9fd6 81be e55a 2b3e 8f43 c53d
00000140: 6f76 2d3d 2eee c3bc 4319 18bd 1ab5 363d
00000150: 1663 35be b9db d2bd db1b 0a3e a9ff 42bd
00000160: 57e7 4bbe 1cb8 f4bd d841 b5bd edb0 ff3d
00000170: 9433 30bd 6f19 82be d0b7 433c 0244 e0bd
00000180: 6fe9 cf3d a422 06be 9646 e03d 8742 0cbe
00000190: 8f92 983d 9fe5 b03d b4ca 583d efa5 d4bd
000001a0: 931a 593e 3eff 25bd ff13 85be 41ef 8f3d
000001b0: 9ed4 0b3d 540a e7bd 13c5 29bd 6f3b 863d
000001c0: 651a 823b 32dd fc3d 5afa cf3b e029 e03d
000001d0: 3a24 f2bc ed5f c6be c912 b3bd c870 08bb
000001e0: ca54 9c3d 5864 43bd 4e0d bb3c ce8e aa3d
000001f0: 1059 cdbd ae6b d3bc b75a 8ebd 4564 993e
0.061310466 0.21073243 0.19142854 -0.062383216 0.088352956 -0.02356087 0.020511921 0.06195996
-0.041332837 -0.2689396 -0.015809605 0.04231188 0.1292276 0.05807733 -0.22067781 0.07204274
0.105530255 0.21680751 -0.010422767 -0.031951837 -0.15503381 0.16102348 -0.060594115 -0.05956788
0.06801345 0.12422945 -0.11811759 -0.22073013 -0.2147664 0.017995296 -0.2450165 -0.058641333
0.12703522 -0.034859832 0.017866759 -0.1664711 0.027793735 -0.11636692 -0.13793449 0.09459572
-0.10083977 -0.14064759 -0.062075242 0.07386245 0.18855357 -0.11409145 0.08016263 -0.15841661
0.14873661 0.105545655 -0.18628752 0.11865125 0.013946617 -0.014773345 0.07555165 -0.16694887
-0.20457602 -0.034003332 -0.16513835 -0.10636965 0.08422925 -0.14938323 -0.09592596 0.19224991
0.0066711674 0.009958631 -0.07084293 -0.18733524 -0.08714491 -0.13472338 -0.23363893 -0.11329453
-0.12493018 0.014728956 -0.014359474 0.023204196 0.12477312 -0.25359055 0.16733892 0.096320264
0.042349275 -0.023917284 -0.037133466 0.044606306 -0.1771358 -0.10295815 0.13487189 -0.047607098
-0.19912468 -0.119491786 -0.08850449 0.12484918 -0.04301794 -0.2541003 0.01194568 -0.109504715
0.10151946 -0.13099152 0.10950963 -0.13697253 0.07449829 0.08637547 0.052927688 -0.10383212
0.21201544 -0.04052662 -0.25991818 0.07028056 0.034138314 -0.11281267 -0.04144771 0.06554305
0.0039704316 0.12346877 0.006346983 0.10945487 -0.02955829 -0.3874506 -0.08743817 -0.0020819176
0.0763336 -0.047703117 0.022833493 0.08328019 -0.10026753 -0.025808182 -0.06950896 0.29959312

fc3.weight f4 [4, 128]
00000000: a13f 0ebe fbf5 023e 0f73 10be 00c8 c1bd
00000010: 56c1 e3be 9e73 cd3d a589 51be 4a5d b2be
00000020: fbd9 15be 9b78 72bd 26e7 69be 7cbc a43e
00000030: 6a01 253c e85a 8bbe 135d 48be 5eb7 e4bd
00000040: 04af 7a3e a187 003f 5e45 fe3e 3f0d b23e
00000050: c83a 153e 0944 82bd 7cf7 883e 5e47 c03d
00000060: 91e3 0cbe 0367 213e 401b 0b3d 1f1d 53be
00000070: a641 80be 694f 37be 2a23 d6bd 3797 b43e
00000080: 88ab b23b 7f7e f53d df12 cf3d de43 4fbd
00000090: a78b 193f b5fd 5f3e f157 e2be b037 993e
000000a0: 460a 2e3e 8538 8abe 5b57 3dbf 17fd d13d
000000b0: a72f 693e d0d5 cabc b8e9 193e ff6a c8be
000000c0: ddeb c9be ccc2 bb3e 815b db3d 5830 0e3f
000000d0: 04a6 59be ed63 babe 7be2 533e 4886 db3e
000000e0: 91b0 4fbe 607c 0e3d 20d4 27ba 0dd6 ef3d
000000f0: ac87 043e a492 2e3f 585a 9d3e ba8f 23bf
00000100: d6c3 433e fdef ef3d 94b2 8dba 28b3 003e
00000110: f160 bc3d 7693 d23d c46a 54be ea7c 93be
00000120: 0253 03bd 12b2 85bd 8a18 353e 66f2 86bd
00000130: 41b3 53be 2041 b9be b251 9a3e 5c09 1f3e
00000140: 9d83 c6be e815 0dbd 812d 9d3b fafe 393e
00000150: 9e99 0e3f d802 f4bd 2708 113e fe51 00bf
00000160: 9c74 27bf 6b3e b83c 567e b4be 7637 a0bd
00000170: e394 71be af06 1d3e 788f 313d 26e5 1b3e
00000180: fda1 e23e bcea 20be db2f 8a3e 27b7 6f3e
00000190: 4b58 89be ff68 0dbf 1fb4 14bd 34de 3fbd
000001a0: 0f06 abbe 2bd7 993e 209a 04bf 273a 143e
000001b0: 95ef 30be c558 8cbe 1d90 acbd b5aa f1be
000001c0: ed2d 0b3e 2d94 013f 32cb a63d 2e34 51be
000001d0: 7157 14bf 9da4 f2bd 2872 2d3d 1262 883d
000001e0: 10ba ec3c 26a8 a43e 0c01 8e3e 6685 203e
000001f0: aa59 19bf 6a98 34be 107c a13d 2781 0fbd
00000200: d3eb 45bd 093d 8abe d913 d6be 12c3 23be
00000210: 33e1 e33b d0b7 dfbc 1d67 243d edb4 45be
00000220: 2e45 2f3e 7411 dd3c 39f8 223e d94b 32be
00000230: 800c 09bf 9a57 fdbe 4418 c03e fb18 763e
00000240: bc42 ae3e 744d 293e 5f48 a03d 174b 873e
00000250: 1fa3 4d3f ea0a cc3e 00cd f8bd 9f5a 663e
00000260: b4f7 643e d6c8 973d e2dd 2d3f 6db8 1e3e
00000270: 61c2 2cbe ae4e ec3d 37e0 cfbc 2513 2bbe
00000280: 79d0 c2bd b595 5ebe 1259 68bc 471e b83e
00000290: eca4 b63d f538 1b3e 25b5 213d cb74 1fbe
000002a0: 1ba3 783e 2e23 443d c213 e3bc 89c4 58be
000002b0: af4d 7e3b 65a0 a1be 6b37 653e 27d8 e73e
000002c0: a28d 273e 1517 91be b0d5 443f db62 3abe
000002d0: 660b b7bd 97d3 80bd 961d 11be 394b e6bd
000002e0: 8258 de3d 92ba 97be b103 f03d c6e5 54bd
000002f0: 5afe 23be a1d4 dcbc 0899 5bbd df3b fabd
00000300: 2b86 42be 70b4 cabe abd7 f93c 640f 55be
00000310: b61d 53be f4b9 01bb 24fb c83e ee9c 7abe
00000320: 2c19 d3bd eab5 2dbe d7a7 ad3e 29e9 f03e
00000330: f01b 9f3e c71b b23e 88fa 86be 3319 83bd
00000340: dfee 6fbb 7ef5 30bd 2531 64bd b81a 013e
00000350: a428 a5bc 4df5 ad3e 6be4 213e 9d68 06bf
00000360: 0e2c 613e 8182 783c e74c a03e 5185 9bbe
00000370: 750a a03e afb3 c83e 8d8f ee3e bc97 df3c
00000380: 3e13 27be 1887 ffbe 9dc0 c6bd a921 c13e
00000390: 6cb7 67be 21a1 80be 0aa2 05bd 6eda 8f3e
000003a0: 1b7e eabe 70ac 95be 4c11 ddbb e6b0 8abc
000003b0: 35a4 9a3e e1c8 c53c f543 25be 1394 093e
000003c0: 28f9 823d 2c6b 2fbe d93e d6bd 43a7 c7bc
000003d0: 1ff2 21bd 39e5 04be 6a7a 8bbe 8171 35be
000003e0: 7756 03be 6452 6f3e 9d08 f03d 7110 b7be
000003f0: 3d4f 553d 81c1 fe3e 9934 e6bc c99c a3be
-0.1389146 0.12789147 -0.14106391 -0.09461975 -0.4448344 0.10031818 -0.20462663 -0.348368
-0.14633934 -0.05919705 -0.22842082 0.32175052 0.010071138 -0.27217793 -0.19566755 -0.11167787
0.24480826 0.50206953 0.49662298 0.3477573 0.14573205 -0.06360633 0.26751316 0.09388612
-0.13758685 0.15761952 0.033961535 -0.20616578 -0.25050086 -0.17901386 -0.10455926 0.35271618
0.005452577 0.11987018 0.10111021 -0.050601833 0.5997872 0.21874125 -0.4420772 0.299253
0.16996107 -0.26996246 -0.7396142 0.10253351 0.22772084 -0.024760157 0.15030563 -0.39144132
-0.39437762 0.36672056 0.10710812 0.55542517 -0.21254736 -0.36404362 0.20691864 0.42875886
-0.20282198 0.034786582 -0.00064021535 0.11710749 0.1294238 0.68192506 0.3073299 -0.63891184
0.19117674 0.11715696 -0.0010810667 0.12568343 0.091981776 0.10282032 -0.20743853 -0.2880624
-0.032061584 -0.06528105 0.17685142 -0.065892026 -0.20673849 -0.361825 0.30140454 0.15530914
-0.38772288 -0.03444472 0.0047966843 0.18163672 0.5570315 -0.11914605 0.14163266 -0.5012511
-0.65412307 0.0224907 -0.35252637 -0.07823078 -0.23591952 0.15334581 0.043349713 0.15224132
0.44264212 -0.15714544 0.26989636 0.23409711 -0.26825175 -0.55238336 -0.03630459 -0.04684277
-0.3340306 0.30046973 -0.51797676 0.14475308 -0.17278893 -0.27411476 -0.08425925 -0.47200552
0.13591738 0.50616723 0.08144225 -0.20430061 -0.57945925 -0.11847804 0.042345196 0.066593304
0.028897315 0.32159537 0.27735174 0.15675887 -0.5990244 -0.17636266 0.07884991 -0.03503528
-0.048320603 -0.2699969 -0.41812018 -0.15992382 0.006954336 -0.027309328 0.0401374 -0.19307299
0.17116234 0.026985861 0.15915002 -0.17411746 -0.535347 -0.49480897 0.37518513 0.24032967
0.3403529 0.16533452 0.07826304 0.26424477 0.8032703 0.39852077 -0.12148476 0.22495507
0.22360116 0.07411353 0.6791669 0.1550004 -0.16871025 0.115384445 -0.025375469 -0.16706522
-0.09512419 -0.21736796 -0.014181392 0.359606 0.08918175 0.15158446 0.039479394 -0.15571897
0.2428097 0.047885112 -0.027719382 -0.21168722 0.0038803627 -0.31567684 0.22384422 0.452821
0.16362622 -0.28337923 0.7688856 -0.18201773 -0.08937721 -0.062903576 -0.14171442 -0.11244816
0.10856725 -0.2963453 0.11719454 -0.05197694 -0.16014996 -0.026956858 -0.05361274 -0.12218451
-0.18996494 -0.39590788 0.030498346 -0.20806652 -0.20616803 -0.0019794675 0.39254105 -0.24473926
-0.103075355 -0.16963926 0.33917114 0.47052887 0.31076002 0.34786817 -0.26363015 -0.06401291
-0.0036610884 -0.04320287 -0.05571093 0.12607849 -0.02016098 0.33976212 0.15809791 -0.5250338
0.21989462 0.015167833 0.31308672 -0.3037515 0.31257978 0.39199588 0.46593896 0.027294032
-0.16315934 -0.49907756 -0.09704707 0.37720993 -0.22628564 -0.25122932 -0.032625236 0.28096336
-0.45799336 -0.29233122 -0.0067464467 -0.016930055 0.30203405 0.024143638 -0.16139205 0.13435392
0.06395179 -0.17130727 -0.10461206 -0.024371749 -0.039537545 -0.12978067 -0.27241832 -0.1771908
-0.12825952 0.23371273 0.11720393 -0.3575473 0.05207752 0.49757007 -0.028101252 -0.31955555

fc3.bias f4 [4]
00000000: 974a 1e3e 984c dbbb 9519 1bbe 9f44 fa3c
0.15458141 -0.0066924803 -0.15146478 0.0305503
