checkpoint_critic.pth (torch_old, 89679 bytes, 9 tensors)

fcs1.weight f4 [128, 33]
000000 41 58 e2 bd 56 c2 a8 3c 3d 81 f8 bd 0b d7 a0 3d
       -0.11051989 0.02060048 -0.12134025 0.07853516
000010 dc 07 59 be 4f 73 81 bd db 9d 7b 3e 65 c3 3d 3d
       -0.21194404 -0.063208215 0.24571936 0.04632892
000020 e9 96 1d 3e a7 3b a0 bd 10 6e 62 bb 7f a5 df 39
       0.15389599 -0.07823878 -0.0034550466 0.0004265718
000030 38 22 89 3d ef 24 0f 3e 93 9e 86 bd 56 a1 f9 3d
       0.0669598 0.13978933 -0.065732144 0.121889755
000040 87 b9 e4 3c 81 e4 bd bd 32 f4 1a be 77 55 06 3e
       0.027920498 -0.09272099 -0.15132216 0.1311854
000050 42 f6 0d bd b1 21 5d bc f5 9f ef bb 97 a6 4d bc
       -0.034658678 -0.013496802 -0.0073127695 -0.012551925
000060 03 bd 00 3c a7 1b bc 3d c0 90 27 bd 2e 03 bc bc
       0.007857564 0.09184962 -0.04090953 -0.022950735
000070 4a 41 ea bd 3a 44 51 3d 46 44 33 3d 68 0b 13 bc
       -0.11438234 0.051090457 0.043766282 -0.008974887
000080 b1 84 0c bf 7e 20 0b bd 21 3e 85 be 3d 3a f0 3d
       -0.5488997 -0.033966534 -0.26023963 0.11729858
000090 6e 68 7e bd c1 ca 95 3e 44 ad 49 be 6f c5 4b 3d
       -0.06211131 0.2925625 -0.19695002 0.049748834
0000a0 87 a3 a1 3d 3c 0a d5 3c 16 bc ea 3d df 07 6d ba
       0.078925185 0.026005857 0.11461656 -0.00090420054
0000b0 96 4e ba bc 14 ff 44 bc fb 02 1d 3c 21 63 37 3e
       -0.02274255 -0.012023706 0.00958323 0.17908908
0000c0 16 2c c2 bd 89 6a 0c 3e 81 35 de 3d d6 06 9c 3c
       -0.09481065 0.13712515 0.10850049 0.019046228
0000d0 0e 35 78 be 8d 32 ab bc 07 9b f6 3b 0d b5 17 bd
       -0.24238989 -0.020898128 0.007525805 -0.037037898
0000e0 ff 19 43 bd 3a b9 47 3c c0 98 39 b8 ae cc be 3a
       -0.047632214 0.012190158 -4.4249697e-05 0.0014556849
0000f0 47 20 f1 3d 8d bf 9e 3c e0 7b cb bb df 01 80 bd
       0.117737345 0.019378448 -0.0062098354 -0.06250357
000100 7e 76 67 3d 4d 4a 01 3f 30 fc 35 bb 07 6a d3 3c
       0.056509487 0.50504 -0.0027768724 0.025807394
000110 d7 2f 48 3d c1 96 b7 3d f7 55 af bd 45 67 6d 3e
       0.04887375 0.08964301 -0.08561318 0.23183925
000120 17 6b 7e bc e9 8e 8e 3c 8a 3b 9d 3c 64 75 52 bc
       -0.015528462 0.01740213 0.01919343 -0.012845371
000130 9d 94 1a 3c f7 85 c3 bb 3d 24 4a 3b 23 08 71 3c
       0.009434846 -0.0059668976 0.0030844354 0.014711413
000140 b1 90 62 3b c1 28 03 bd 04 85 23 bd 65 1f f0 bd
       0.0034571106 -0.032021288 -0.039921775 -0.11724738
000150 fb 7b 8a 3d 10 7a 71 3d 45 39 b1 bb 8c 55 52 bc
       0.06761929 0.0589543 -0.0054084384 -0.012837779
000160 d4 1f dc bb 78 5a 15 3b 1a 1e 1a 3b 2d 41 ab bc
       -0.0067176614 0.002278952 0.0023516477 -0.020905102
000170 57 75 cf bd de db 3a 3e 50 2f 31 bd 2e 45 4d 3d
       -0.10129803 0.18247935 -0.04325801 0.050114803
000180 49 2f ff bd 50 e9 e3 bb 9c 42 83 3f 64 8e cd bd
       -0.12460191 -0.0069553033 1.0254703 -0.100369245
000190 9c 13 94 3e 21 5d 23 bd 2c ec f1 3d 92 bc b9 bd
       0.2892121 -0.039883737 0.11812624 -0.0906917
0001a0 87 c3 57 be e0 ba 34 3b 8d e3 e6 bc 83 1f c9 bc
       -0.21070682 0.0027577206 -0.028184677 -0.024551159
0001b0 82 3c aa bc d2 f5 a3 3b e1 30 af 3c ee 3c 44 bd
       -0.020780805 0.0050036693 0.021385612 -0.04790967
0001c0 76 39 17 3e e2 72 88 bd 74 b5 f1 3d 94 7d 60 3d
       0.14768013 -0.06662537 0.118021876 0.05480726
0001d0 cf 5f 87 3d 57 25 d1 bd 2d 7e 99 bd 43 e1 c3 3c
       0.06610071 -0.102122 -0.07494769 0.023911124
0001e0 bf f5 9c bd 5a bc 88 3c b7 5e dc bc 66 65 54 bd
       -0.0766406 0.016691376 -0.026900632 -0.051854514
0001f0 dd eb fb bc f1 18 08 be ab 99 17 be d6 f9 93 bd
       -0.030752117 -0.13290764 -0.14804713 -0.07225387
000200 c4 c5 a6 bc d0 30 01 3d ee ad 72 3d 9d 97 50 3e
       -0.020357974 0.03154069 0.059247904 0.20370336
000210 d1 39 97 3c 88 f3 12 3e 4a 2b 1d 3d 95 5c 0a bf
       0.018460186 0.14350712 0.03837136 -0.5404752
000220 54 44 a1 3e 91 42 1d 3e d2 09 89 bd 8f e0 71 bd
       0.31497443 0.15357424 -0.06691326 -0.059052046
000230 81 dd 58 be 41 5f c6 bd a0 66 2b bd 91 15 eb 3c
       -0.21178247 -0.09686137 -0.041845918 0.028696807
000240 91 d9 6e bc 23 af 24 be 3e 53 2c bd 04 31 64 bd
       -0.014578239 -0.16082434 -0.042071573 -0.055710807
000250 d3 79 09 3e 66 70 3c be 20 ae c9 3d 72 cf be bd
       0.13425379 -0.18402252 0.09847665 -0.09316911
000260 36 31 af 3b f1 97 5c 3d 2c 93 3e 3d b8 9d bd bc
       0.0053464426 0.05385584 0.046527073 -0.023146495
000270 87 28 c8 bb 27 a1 81 bb 04 8a 94 3d d3 7d d2 bc
       -0.006108347 -0.0039559784 0.07252887 -0.025694763
000280 1b 04 61 3d 68 86 e1 3c 5d a8 a5 bc 4a c4 7a 3d
       0.054935556 0.02752991 -0.020221883 0.061222352
000290 20 77 aa 3e 89 b0 1b bd 19 a9 e3 bd 0c 15 19 bd
       0.3329401 -0.038010154 -0.11116237 -0.037373587
0002a0 63 16 4a be 5b 22 df bd f9 67 e6 be 78 7b 82 3e
       -0.19735102 -0.10895225 -0.450012 0.25484824
0002b0 61 59 39 3d e2 15 c2 3d 20 e5 75 3c 26 22 05 3d
       0.045251254 0.0947683 0.015008241 0.03250327
0002c0 41 37 70 bd 49 5f 60 3c 49 0f b8 3c 22 69 17 3d
       -0.058646444 0.013694593 0.022468226 0.036965497
0002d0 0d 82 44 bc 42 2c e1 bc 0c df 34 bd 46 ba 65 be
       -0.011993897 -0.027486924 -0.044158027 -0.22434339
0002e0 b6 4e 13 be 51 d4 27 ba dc a9 1b 3b 46 cf fe 3b
       -0.14385495 -0.0006402182 0.0023752367 0.0077761738
0002f0 ce 34 8f 3d cf a7 ac 3c f6 76 af bb 65 77 54 3d
       0.069924936 0.021076111 -0.0053547574 0.051871676
000300 25 e5 e6 3d f8 f8 22 3d 84 82 85 3c af 41 b2 bd
       0.112741746 0.039788216 0.016297586 -0.087039344
000310 a0 12 d7 bc ec 4b 4b bf 45 ab c5 3c db 71 80 be
       -0.026253998 -0.7941272 0.02412952 -0.25086865
000320 41 67 22 3c 26 78 1c be ee 7c 3a 3d ab 33 8a 3e
       0.009912313 -0.15280208 0.0455293 0.26992545
000330 d4 a2 1b be 51 60 35 3d f7 94 e1 bd fe bd 0e be
       -0.15198833 0.044281308 -0.11014741 -0.13939664
000340 42 90 d3 ba c5 43 27 3d ef 66 2b 3d dd 9f cb bb
       -0.0016141015 0.040836114 0.041846212 -0.0062141255
000350 01 05 85 3e 73 e3 b0 3d dd 46 88 bd 15 34 50 3c
       0.2598038 0.086371325 -0.06654141 0.01270773
000360 8f b2 35 bd e7 7d 4e be 30 2a 44 bd 6f fa 0a 3d
       -0.04435974 -0.20165215 -0.047891796 0.03393024
000370 8a 5a 2b 3d 1d 1b ba 3d 14 de 45 3d da 1e 8b 3d
       0.04183439 0.09087203 0.048307493 0.06792994
000380 27 29 f9 3d 13 60 40 3e ce 20 2f bd 47 4c 8b bd
       0.12166052 0.1878665 -0.042755894 -0.06801658
000390 56 62 85 bd 60 af d1 3c 89 6f 42 bd 7d 39 00 3d
       -0.06512897 0.02559632 -0.04746965 0.031304825
0003a0 19 f6 24 3e 03 52 d7 3d fc 11 b8 3e 2f 9b a6 be
       0.16109504 0.10513689 0.3595122 -0.3254027
0003b0 3d a5 02 bd 3d df e0 3d ab 14 da 3d 88 72 83 3d
       -0.031895865 0.10980079 0.10648473 0.064183295
0003c0 6b a7 cd bc e4 4a 6d 3d f3 3e 77 39 e4 61 31 bb
       -0.025104245 0.05793275 0.00023579206 -0.0027066404
0003d0 3d 3b ce 3d 43 0c dc bd 5f 60 bf bd d1 b8 53 be
       0.100698926 -0.10744526 -0.09344553 -0.2067597
0003e0 2e bc 49 3e 74 a7 fe bd 4c 19 a7 ba bd 99 fa bd
       0.19700691 -0.12434283 -0.0012748628 -0.122363545
0003f0 0a b5 94 bd 90 3c ae bd 45 f7 8d 3d a8 27 6a 3b
       -0.07261093 -0.08507645 0.069319285 0.0035729203

fcs1.bias f4 [128]
000000 19 9a 0a 3e 2f f8 fc 3d 38 d2 38 be 1a 38 cf 3d
       0.13535346 0.12352025 -0.18048942 0.101181224
000010 7c 5d 4a 3c cb 82 a9 bd 5a db 78 3d 69 9b 36 be
       0.01235139 -0.082769 0.060756065 -0.17832722
000020 79 c7 50 be e9 29 6a 3e 32 fb 3e be 37 ec f6 3c
       -0.20388593 0.2286755 -0.18650511 0.030141933
000030 7c 6d 88 3e 19 4f 1b 3d 34 bb 0c 3c 14 6c b7 bc
       0.2664603 0.03791723 0.008589555 -0.022390403
000040 1f db aa bd 86 a7 48 be 91 ea 1c be ce 5a d4 bc
       -0.08342575 -0.19595155 -0.15323855 -0.025922205
000050 b1 93 b7 bd 7f 8b 3f be 18 4a 42 be 7e a3 35 be
       -0.08963717 -0.18705557 -0.18973577 -0.17738149
000060 3e 93 27 be 06 11 99 bd 05 d6 00 be bb 66 d2 bd
       -0.16364762 -0.0747395 -0.12581642 -0.102735005
000070 82 87 5a bd f7 7f 3c 3e 36 47 20 3e 74 49 47 bd
       -0.053351887 0.1840819 0.15652165 -0.048654035
000080 42 0e c5 3c c2 62 c4 bd e1 0c 58 be c2 00 8b bc
       0.02405465 -0.09589149 -0.21098663 -0.016968135
000090 8b d4 62 be 7c d8 ea bd fc 72 74 be 7d 6e 20 3d
       -0.22151391 -0.11467072 -0.23871988 0.03916787
0000a0 8b 32 06 be d9 d0 fb 3d c2 b7 8e be 0d cd 88 3e
       -0.13105218 0.12295694 -0.2787457 0.2671894
0000b0 44 40 6e bd b6 01 ba bc 60 80 8c be 67 e9 2f be
       -0.058166757 -0.022705894 -0.27441692 -0.1717888
0000c0 ed 5a 85 3c 52 a4 2f b9 07 fb 09 3e fb 21 68 bc
       0.016278708 -0.00016750515 0.13474666 -0.014168258
0000d0 b6 0c 3d bd 5c ae 21 be 3d f7 88 bc cd 93 83 bd
       -0.0461547 -0.15789169 -0.016719455 -0.06424675
0000e0 0e 81 ad bd bf 5a cf bd 94 0f ba 3c cc 47 28 be
       -0.08471881 -0.1012473 0.022712506 -0.16433638
0000f0 34 a4 78 be 25 f5 06 3e d4 34 37 3d e9 fc 0d be
       -0.24281389 0.13179453 0.044728115 -0.13866009
000100 b3 8c b1 be 5b f0 9d bd 52 37 c5 bc 9c f7 57 be
       -0.34677657 -0.0771186 -0.02407423 -0.21090549
000110 dc 11 16 be ca 15 71 be 33 1f 9d be b2 bf d5 bd
       -0.1465525 -0.23543468 -0.30687866 -0.104369536
000120 50 74 86 3d 8b 9b 03 3e 48 44 d4 bd d8 93 33 bd
       0.065651536 0.12852304 -0.10364586 -0.043842167
000130 32 19 0d 3e ff c8 27 be 5a 69 12 bd 3e c1 4b be
       0.13779142 -0.16385268 -0.035745002 -0.19897935
000140 66 71 09 be 16 46 41 3d b0 1f 86 bd 42 c5 22 3d
       -0.13422164 0.04718598 -0.06549013 0.0397389
000150 41 5e 53 bb f1 82 da bd 61 fc 00 be 71 34 d9 bd
       -0.0032252225 -0.10669506 -0.12596275 -0.106057055
000160 71 6e 98 bc ad 5d d6 bd 75 0c 6e be 50 32 51 3d
       -0.01860735 -0.10467086 -0.2324694 0.051073372
000170 93 de 1f bd 35 68 4b be 9c 32 3a 3e 37 c4 fb 3c
       -0.039030623 -0.1986397 0.18183368 0.030733211
000180 c6 39 a1 bd 03 92 24 be 38 16 54 3e 11 fa 88 bc
       -0.078723475 -0.16071324 0.20711601 -0.016720803
000190 cd 72 8f be 98 21 1f 3d 2a c6 4d be 35 4d bd bc
       -0.28017274 0.038850397 -0.20095125 -0.023108104
0001a0 c1 b5 db 3d 61 db 4d be d7 59 06 be ff 76 4d be
       0.10728026 -0.20103218 -0.13120209 -0.20064925
0001b0 f1 50 a8 3d 31 a9 66 be 5e a2 29 3e 8a 14 23 3e
       0.08218563 -0.22525479 0.16565844 0.15925804
0001c0 1d 14 9b bd dc 57 96 3d 8d 28 dc bd 46 7b 4a be
       -0.07572196 0.073409766 -0.10749922 -0.19773588
0001d0 8c bd 41 3e 93 42 c4 bb 06 f0 54 be 95 ce 81 3c
       0.18919963 -0.0059893816 -0.20794687 0.015845576
0001e0 25 9d 88 be c5 89 61 3e 8c d3 4f 3d f5 e7 16 be
       -0.26682392 0.22025211 0.050738856 -0.14736922
0001f0 6d 87 98 3c 8b 0e bc bd 44 2a 01 3e c0 61 81 3d
       0.018619264 -0.09182461 0.1261378 0.063174725

bn1.weight f4 [128]
000000 5c d9 63 3f 1d 13 58 3f 21 7a b9 3f ca e6 50 3f
       0.8900354 0.84404165 1.4490396 0.81602156
000010 9b 87 2b 3f 97 9d 79 3f 31 dd 7d 3f 50 21 38 3f
       0.6700379 0.9750609 0.99165636 0.7192583
000020 61 8b 83 3f e2 3d 6e 3f 1e f4 29 3f c5 50 62 3f
       1.027691 0.93063176 0.6638812 0.88404495
000030 ab 3a 62 3f 54 4b 36 3f 01 26 28 3f 31 f8 72 3f
       0.8837077 0.7120869 0.6568299 0.9490996
000040 94 65 8e 3f a2 d6 72 3f 1f c3 7c 3f b9 1e 5f 3f
       1.1124749 0.94858754 0.9873523 0.87156254
000050 7f fa 56 3f 37 e3 5f 3f 3a 70 87 3f 94 be 0e 3f
       0.83975977 0.8745608 1.0581124 0.5575955
000060 43 f6 65 3f 1c 29 47 3f da df 68 3f a2 3e 6a 3f
       0.8982889 0.777971 0.9096657 0.9150182
000070 e0 d1 52 3f dc 3c 64 3f 96 51 85 3f f2 0c 87 3f
       0.82351494 0.89155364 1.0415523 1.0550826
000080 f4 ab 39 3f b4 6d 3c 3f 08 81 58 3f 31 38 77 3f
       0.72528005 0.73604894 0.84571886 0.96570116
000090 93 6d 5b 3f 1b da 42 3f d9 69 52 3f 81 19 73 3f
       0.8571407 0.7611405 0.8219276 0.9496079
0000a0 b4 b7 81 3f 91 65 80 3f 38 f3 4d 3f e2 6c 76 3f
       1.0134187 1.0030996 0.8044925 0.9625989
0000b0 5c 49 48 3f 3f 47 81 3f 68 f2 53 3f 3f 65 9e 3f
       0.7823694 1.0099868 0.8279176 1.2374648
0000c0 54 1d 77 3f 7e 49 67 3f 91 6d 6a 3f 9d 6e 7d 3f
       0.96529126 0.90346515 0.91573435 0.9899691
0000d0 5c 7d 4c 3f f1 2f 88 3f 3a 4c 58 3f f8 5f 6a 3f
       0.79878783 1.063963 0.8449131 0.91552687
0000e0 55 86 80 3f 0a 6e 64 3f 02 13 72 3f c7 fd 51 3f
       1.0040995 0.89230406 0.94560254 0.8202786
0000f0 ce 46 58 3f 9c af 7f 3f e1 12 71 3f b1 7b 5c 3f
       0.8448304 0.99877334 0.9416943 0.8612624
000100 f4 17 4a 3f 03 8c 50 3f 68 8c 51 3f 3b 99 76 3f
       0.789428 0.8146364 0.8185487 0.9632756
000110 8d b3 9f 3f 6a da 60 3f ce 56 70 3f 25 dc 82 3f
       1.247667 0.87833273 0.93882453 1.0223433
000120 5e c9 77 3f c3 69 4e 3f 5f f7 1f 3f a5 36 65 3f
       0.96791637 0.8063013 0.62486833 0.89536506
000130 a7 07 65 3f 72 6e 6d 3f b0 02 64 3f 62 63 34 3f
       0.894648 0.9274665 0.890666 0.70464146
000140 97 50 4f 3f 67 2e 71 3f b8 58 67 3f f8 87 87 3f
       0.80982345 0.9421143 0.9036975 1.0588369
000150 94 93 61 3f 8b 27 59 3f 13 06 6c 3f 9e b0 81 3f
       0.8811581 0.8482596 0.9219677 1.0132024
000160 fd c6 9d 3f 0f 44 8b 3f f1 47 96 3f ae 02 9b 3f
       1.2326351 1.0880145 1.1740705 1.2110193
000170 c0 93 69 3f 31 55 4e 3f 2e 3d 5f 3f 3e a9 49 3f
       0.91241074 0.8059874 0.8720273 0.7877387
000180 d4 c8 38 3f 8b 7b 80 3f ac 90 3b 3f 76 fb 66 3f
       0.7218144 1.0037702 0.73267627 0.9022745
000190 a5 c4 51 3f e6 2c 44 3f 7c 19 87 3f 5a 35 69 3f
       0.8194068 0.7663101 1.0554652 0.91097033
0001a0 c9 52 8f 3f 8a c6 99 3f c0 3b a7 3f ba 68 6d 3f
       1.1197139 1.2013714 1.3065109 0.92737925
0001b0 2a 5d 24 3f 9a 77 80 3f 90 74 3c 3f 66 3a 56 3f
       0.6420466 1.00365 0.7361536 0.8368286
0001c0 7d 06 76 3f 66 d2 3b 3f 5f 11 3e 3f 32 2f 65 3f
       0.9610365 0.7336792 0.74245256 0.8952514
0001d0 d9 eb 54 3f ca bb 85 3f 4a e9 4c 3f ca 19 6e 3f
       0.83172375 1.0447934 0.8004347 0.930081
0001e0 b2 b7 6e 3f 81 74 6d 3f fa 0e 89 3f 53 40 5c 3f
       0.93249047 0.92755896 1.0707695 0.8603565
0001f0 1e 21 22 3f 80 b5 3a 3f cf ce 9e 3f a3 4f 44 3f
       0.6333178 0.729332 1.2406863 0.76684016

bn1.bias f4 [128]
000000 34 9d 3f 3e 31 61 14 3d 80 0c 92 3d 6e 80 96 3e
       0.18712312 0.0362255 0.071312904 0.2939486
000010 a4 64 65 3e dd 28 03 3e 95 82 41 be ab 9b 61 bc
       0.22401673 0.12808557 -0.1889747 -0.013770024
000020 77 8f 5a be 34 df 6b 3e c5 a6 dc 3e 89 1a 9e bd
       -0.2134379 0.23034364 0.43095985 -0.07719905
000030 bb 1c fa 3d eb 81 b1 bd a5 d4 b4 bd 1c e2 a6 3e
       0.12212511 -0.08667358 -0.08829621 0.32594383
000040 b5 f2 a8 be a3 fb 3d bd d0 cf e4 3e d5 45 01 3d
       -0.3299767 -0.046382558 0.44689798 0.031560738
000050 d6 5e 94 bd b0 f7 99 be d0 27 92 3e 24 50 a8 bd
       -0.07244651 -0.30071783 0.28546 -0.082184106
000060 ef 35 91 be 53 04 1e be 75 84 18 3e d9 9a 2d be
       -0.2836146 -0.15431337 0.14894278 -0.16953601
000070 43 0b 87 bb 37 92 8f 3e ab 29 07 bd f7 82 b1 bd
       -0.0041212155 0.2804124 -0.032998722 -0.08667558
000080 82 b0 9f 3c 97 a8 70 3d d7 00 81 3e 37 64 0c bd
       0.019493345 0.05875453 0.25195953 -0.03427526
000090 eb 19 4f 3d 5c d7 9d be 81 d5 98 3e c5 5f 70 3c
       0.050561827 -0.3082837 0.2985039 0.014671271
0000a0 aa 3e aa 3e 6e 5f 56 3d e6 1e 8a 3e 52 68 aa 3d
       0.33250934 0.052337103 0.269767 0.08320679
0000b0 34 f9 94 be f8 60 7d 3e da c4 72 bd a5 41 6f 3e
       -0.29096377 0.24744022 -0.059269764 0.23364885
0000c0 40 df 01 3d 89 3a c3 bd cf 7e 11 bd 6b f9 06 3e
       0.03170705 -0.09532649 -0.035521325 0.13181083
0000d0 b7 6b df be b8 4a 56 3e 8e 39 10 be fb 42 99 3d
       -0.43636867 0.2092694 -0.14084455 0.07483479
0000e0 af 37 06 3f 04 10 52 be 19 1b b4 bc d4 cb 9a 3d
       0.52428716 -0.20513922 -0.021985577 0.075584084
0000f0 4a d5 29 3e 48 df 85 bc 79 ed 46 3e f6 13 5d 3e
       0.1658527 -0.01634182 0.19426526 0.21589646
000100 81 a6 f0 bd e6 46 76 be d0 c4 81 be 9e e7 ee 3e
       -0.11750508 -0.24050483 -0.2534547 0.46661085
000110 83 89 8b 3d c3 78 07 be e0 4c 84 3e e3 37 93 be
       0.06813338 -0.1322966 0.258399 -0.28753576
000120 a3 9e e4 3d 25 59 35 3e f7 75 06 3e 2f d6 88 be
       0.1116307 0.17709787 0.13130938 -0.2672591
000130 4b 62 b3 bd ad ca 38 3e 6f e3 ca 3e e1 55 d2 3d
       -0.08758982 0.18046065 0.39626643 0.10270286
000140 1c 0a 6b be c5 e7 0c 3e ce 52 6c be 85 d1 38 3d
       -0.22953075 0.13760288 -0.23078462 0.04512169
000150 88 42 3b be dc 61 92 3c 5a 02 9d be de f5 af bd
       -0.18287098 0.017868929 -0.30665857 -0.08591817
000160 60 6f 2b 3e 91 bb be 3d dd a1 04 bc c7 45 13 3e
       0.16741705 0.09313119 -0.008095232 0.14382087
000170 94 39 90 3d 64 37 f6 bd ab 7d 2b be 44 5e 0e 3d
       0.07042232 -0.12022284 -0.16747157 0.034757867
000180 5f 40 4b 3d b2 18 40 3e 10 38 a3 be 59 92 86 be
       0.049621936 0.1875942 -0.3187871 -0.2628353
000190 26 c4 e7 3e 3a 39 72 3e 61 0e 95 3d 3f 62 98 be
       0.45266837 0.23654643 0.07278133 -0.29762456
0001a0 bd 30 a8 3d 9a fd 23 3e 02 71 7e 3d ce 26 88 be
       0.08212421 0.1601471 0.06211949 -0.26592106
0001b0 70 59 62 be 44 c7 3f be 60 91 02 3d 26 67 ef 3d
       -0.2210443 -0.18728358 0.03187692 0.11689596
0001c0 4d 2b 2f bc cc 43 47 3e 65 57 68 3e 15 6c a5 3e
       -0.010691476 0.19459456 0.22689588 0.32309023
0001d0 15 75 73 be db 18 39 3e 1d 04 9a be ef 8e 0e 3c
       -0.23775132 0.18075888 -0.30081263 0.00870107
0001e0 64 99 84 3e c3 56 19 be 92 5b 77 3d 82 da a8 3e
       0.25898278 -0.14974503 0.060390063 0.32979208
0001f0 0b a6 81 3e c9 ae 6f 3d 64 88 d8 3d 2f 52 06 3e
       0.25321993 0.058516297 0.105728894 0.13117288

bn1.running_mean f4 [128]
000000 61 7e f6 3e 2c 40 67 3e b2 68 17 3e e8 a1 fe 3d
       0.48143294 0.22583073 0.14786032 0.12433225
000010 8c 66 b7 3c fd 32 13 3e d2 9e 5f 3e da 66 59 3e
       0.022387765 0.14374919 0.21837929 0.21230641
000020 25 76 4b 3e 02 1b 69 3e a6 3b 14 3e 35 6d 0f 3f
       0.19869287 0.22764209 0.14475879 0.5602601
000030 29 ac 1b 3f 98 e3 10 3d 3d e9 da 3d 20 0b 72 3e
       0.6080957 0.0353733 0.10689018 0.23637056
000040 e5 f9 6a 3e 20 f4 9e 3d a9 cf 17 3f ce 40 eb 3d
       0.2294689 0.07761407 0.5930124 0.1148697
000050 e8 55 fe 3d 76 6d dd 3d c0 ed 4d 3e 11 c5 99 3d
       0.12418729 0.10811894 0.20110226 0.075082906
000060 9e 39 bc 3e d5 e9 50 3e 50 98 5c 3e 13 61 15 3e
       0.36762708 0.204017 0.21542478 0.14587812
000070 75 bc 53 3e 1c 71 96 3e 18 ec b2 3e 58 7d 10 3e
       0.2067736 0.2938317 0.3494575 0.14110315
000080 97 be 23 3d 80 0a c0 3c 51 6a e7 3d b4 d1 76 3d
       0.039976683 0.023442507 0.11299575 0.060258582
000090 4a 06 46 3d 43 ef 81 3e d9 1e 8a 3d a8 e8 27 3e
       0.04834584 0.25377855 0.06744165 0.16397345
0000a0 dd f8 05 3f df 16 8a 3e 09 1a 37 3e 4b 1c d1 3e
       0.5233286 0.26970574 0.17881025 0.40841898
0000b0 f1 e3 ad 3d 04 68 5f 3e 78 49 39 3e 4c e5 4f 3e
       0.08490742 0.21817023 0.18094432 0.20302314
0000c0 ff ed ca 3e 60 c8 5b 3f 43 c4 56 3e 08 fa 1a 3f
       0.39634702 0.85852623 0.20973305 0.6053777
0000d0 5a e5 76 3e 34 53 b3 3d 42 d3 98 3d 91 35 15 3e
       0.24110928 0.08756104 0.07462169 0.14571215
0000e0 ce cb 83 3e df b1 98 3d e2 04 5a 3e 64 b0 65 3e
       0.25741428 0.07455801 0.21290925 0.22430569
0000f0 85 52 62 3e d0 a0 55 3e 19 67 c6 3e 46 38 20 3d
       0.22101791 0.20862126 0.38750532 0.039116167
000100 04 41 12 3d 58 4e 7e 3e 5d d3 d3 3e 6c 8c 7f 3e
       0.035706535 0.24834573 0.41372195 0.2495591
000110 67 d6 5e 3e fb 87 28 3e b2 a7 7e 3d 72 11 83 3e
       0.21761476 0.16458122 0.062171645 0.25599247
000120 f5 04 ef 3e 0c cc af 3e f4 2d 3b 3d aa 0b 85 3e
       0.4668347 0.34335363 0.04569812 0.2598546
000130 58 52 ca 3e 38 77 be 3e f0 ea d1 3e 27 9a f0 3d
       0.39515948 0.37200332 0.40999556 0.11748152
000140 73 93 ee 3d 0c d2 f5 3d eb 14 09 3e aa 01 78 3e
       0.116492175 0.12002954 0.13386886 0.24219385
000150 8a f4 6a 3e 30 bf 0c 3e d3 ec 3d 3e 5b a3 04 3e
       0.22944847 0.13744807 0.18547373 0.1295294
000160 36 45 46 3e 11 f6 fc 3d 6a f4 8f 3d d4 bf 9d 3e
       0.1936234 0.12351621 0.0702904 0.30810416
000170 5f 78 92 3e e0 54 d0 3e be 21 74 3e 6a f0 08 3e
       0.2860746 0.40689754 0.23840997 0.1337296
000180 38 8c ca 3e ee f3 13 3e 65 35 29 3e 9b 42 7f 3d
       0.39560103 0.1444852 0.16524275 0.06231938
000190 5f 0a 0d 3e 19 0b ec 3e a7 e9 7a 3e 06 90 0b 3f
       0.13773488 0.46102217 0.24503194 0.5451664
0001a0 cc ed 8d 3e 91 a9 c4 3d 86 1c 0c 3e aa 9b 02 3e
       0.27720487 0.09602655 0.13682756 0.12754694
0001b0 94 ae 0e 3f 44 d1 b3 3d 0c e3 e0 3e 88 da aa 3e
       0.55735135 0.087801486 0.43923223 0.3336985
0001c0 19 63 95 3e e7 95 29 3e 04 7d 84 3d b5 93 0d 3e
       0.29177168 0.1656109 0.06469157 0.13825877
0001d0 79 87 dc 3e 29 f4 a3 3e 70 10 b5 3e 93 f2 aa 3e
       0.43072107 0.32022217 0.35364103 0.33388194
0001e0 4a f5 4e 3e 2f 8b 36 3f 4e 1c 79 3e c8 5f 1c 3e
       0.20210758 0.7130613 0.24327204 0.15270913
0001f0 02 86 12 3d ce 2c ba 3d 90 34 d4 3e cc 70 10 3e
       0.03577233 0.09090577 0.41446352 0.14105529

bn1.running_var f4 [128]
000000 7c af 74 3e c1 c4 a6 3d 66 d5 af 3d 01 cc 86 3d
       0.23895067 0.081429966 0.085856244 0.065818794
000010 36 91 87 3c 29 d4 8b 3d 13 af 04 3e 76 c6 d4 3d
       0.016548734 0.06827576 0.1295741 0.10389416
000020 75 e6 0a 3e fa 00 e4 3d 7e 5e c5 3d 96 7d 01 3f
       0.13564475 0.11132999 0.096371636 0.50582254
000030 8a a0 e1 3e 62 c6 b9 3c c1 20 8f 3d 15 ea 0b 3e
       0.44067794 0.022677604 0.06988669 0.13663514
000040 37 6b 12 3e f7 56 06 3d d1 70 8d 3e a3 0b 2e 3d
       0.14298712 0.03279778 0.27625135 0.042491566
000050 c9 1f b6 3d dd 38 87 3d fa 9c b9 3d 6b 99 35 3d
       0.08892781 0.06602643 0.09063144 0.044335764
000060 8b 68 06 3e 4e 80 fa 3d 9e 62 f4 3d e6 74 85 3d
       0.13125817 0.122315034 0.11932872 0.06516437
000070 af 3a ce 3d b0 3e 3d 3e 95 e6 7d 3e 35 98 64 3d
       0.10069787 0.18480945 0.24794991 0.05580922
000080 79 fe 85 3c d8 86 14 3c 71 bd 84 3d 7b db fd 3c
       0.016356694 0.009065352 0.064814456 0.030988446
000090 24 03 b2 3c 6a 2f 2b 3e 4c 52 13 3d 3c 72 9a 3d
       0.021730013 0.16717306 0.035967156 0.0754132
0000a0 25 fe c8 3e 22 53 0b 3e 84 ea f6 3d 59 5f 11 3e
       0.39256397 0.13605931 0.12056449 0.14196528
0000b0 0a b6 5a 3d 4e a2 15 3e 3a 03 af 3d fe 15 ef 3d
       0.053396262 0.14612696 0.08545537 0.116741166
0000c0 1a 2a 63 3e b9 10 43 3f 28 65 d8 3d 63 f1 a8 3e
       0.22184029 0.7619739 0.10566169 0.32996663
0000d0 e6 3e 5b 3e f1 6c 27 3d 88 df 1d 3d 87 43 b3 3d
       0.21410713 0.04087538 0.038543254 0.08753114
0000e0 4e 18 16 3e d3 fb 51 3d 64 c1 92 3d 09 dc 21 3e
       0.14657709 0.05126555 0.071657926 0.15806593
0000f0 39 c7 e3 3d 3a 27 ae 3d b3 1a 0e 3e 70 a3 d2 3c
       0.11121983 0.085035756 0.13877372 0.025712699
000100 11 0f 5e 3c 03 ef 45 3e 3b 4f 9d 3e 49 00 16 3e
       0.013553397 0.19329457 0.3072451 0.14648546
000110 73 c1 e3 3d 5d 63 c5 3d 10 22 01 3d d5 02 0b 3e
       0.11120882 0.09638093 0.031526625 0.13575299
000120 cc 78 b2 3e 62 d9 05 3e f3 1b bd 3c ab 4c eb 3d
       0.34857786 0.13071206 0.023084616 0.11489233
000130 50 bd 05 3e 7f 37 75 3e f2 4f 65 3e 1b a6 6c 3d
       0.13060498 0.23946951 0.22393778 0.057775598
000140 82 6b 43 3d 71 d8 43 3d ca e4 93 3d b1 61 f7 3d
       0.04770995 0.047813836 0.072213724 0.1207918
000150 29 14 f8 3d ed e3 ba 3d 89 23 11 3e 72 2d ae 3d
       0.1211322 0.09125505 0.14173712 0.08504762
000160 93 72 ec 3d 0a 49 47 3d 52 25 cb 3c c3 f2 40 3e
       0.11545291 0.04865364 0.02479807 0.18842606
000170 50 b9 10 3e 51 77 9e 3e 65 d6 df 3d ee e1 e1 3d
       0.14133191 0.30950406 0.109295644 0.11029421
000180 a8 6b 86 3e 89 18 a8 3d c9 f6 b4 3d b3 72 01 3d
       0.2625401 0.08207805 0.08836133 0.031603526
000190 4c 15 d0 3d dc 41 d2 3e 21 89 c3 3d 0f 78 04 3f
       0.10160312 0.41065872 0.0954764 0.51745695
0001a0 65 59 03 3e ed 7c 5b 3d 84 cc 73 3d 9d f4 83 3d
       0.1282707 0.053585935 0.059521213 0.06443141
0001b0 31 ff 16 3e 12 59 55 3d f2 b2 24 3e 9e ff 7b 3e
       0.14745785 0.052086897 0.16083887 0.24609229
0001c0 c7 51 cb 3d 4a 73 8c 3d a6 07 df 3c 6c b6 aa 3d
       0.09927707 0.06857927 0.027225327 0.083355755
0001d0 6c 06 0f 3e 32 1c 44 3e 0f 6e 5f 3e f2 96 3c 3e
       0.13967294 0.1915138 0.21819328 0.18416956
0001e0 41 78 f1 3d f9 0b 0c 3f 10 62 d7 3d d4 db 8d 3d
       0.11790515 0.5470577 0.10516751 0.069266945
0001f0 5f b6 77 3c 69 c0 08 3d 3e 6b 62 3e 7e 26 bb 3d
       0.015119164 0.03338662 0.22111222 0.09138201

fc2.weight f4 [128, 132]
000000 d2 8a 0a 3b b2 a9 f2 3d 71 8d 5d be 85 33 ce bd
       0.0021139872 0.11848773 -0.21635987 -0.1006842
000010 0d 77 b5 bd 90 6c a6 3d d9 70 0a 3a d1 c1 04 be
       -0.08860598 0.081261754 0.0005281098 -0.1296456
000020 36 2f 3e bd 0f ac 8a bd 49 54 73 bd 49 aa 4e 3c
       -0.046431743 -0.06771099 -0.059406552 0.012613841
000030 af bb bf bd 47 ca 66 3d 44 7d 6a bd 0c 49 53 bd
       -0.0936197 0.05634525 -0.05724837 -0.051583335
000040 b5 dc 58 3d 74 6f cc bc f8 7e 59 3d 3e 6c 0d be
       0.052944858 -0.024955489 0.053099602 -0.13810822
000050 4d ed a5 bc 60 e9 b7 3d 62 0d 1f be 11 72 d0 bd
       -0.020254755 0.089800596 -0.15532449 -0.101780064
000060 d7 9f 97 3c fc a3 f9 bb 6b a5 75 bd c6 76 3c bd
       0.018508835 -0.0076184254 -0.059972208 -0.04601171
000070 95 6e a1 3d 37 88 81 3b 82 ad a9 3c 90 3f 02 bd
       0.0788242 0.0039530057 0.020712618 -0.0317989
000080 08 d4 65 3d e5 64 31 be c8 41 bb 3d 29 13 bc bc
       0.056110412 -0.17323644 0.09143406 -0.022958355
000090 b2 bd 16 be 31 ac 90 bd 7f 53 f3 3c d0 2b e9 3d
       -0.147208 -0.07064093 0.0297029 0.1138531
0000a0 81 18 d2 3d 6a c0 f0 bd 9b a9 07 3a 36 9f 49 bd
       0.1025858 -0.1175545 0.00051751145 -0.0492241
0000b0 cb 03 b9 3d d0 a6 a1 3d 01 0d 01 3e 60 22 0d be
       0.090339266 0.07893145 0.12602617 -0.13782644
0000c0 15 31 e7 bd 8f 1d 2a 3e cb 10 76 3c 3d 6e 00 be
       -0.112886585 0.16612838 0.015018652 -0.12542053
0000d0 75 96 b7 3c 72 69 cf bc 6f b3 51 bd 68 aa c6 bd
       0.02241061 -0.025318835 -0.05119651 -0.09700471
0000e0 dd eb 45 bd b0 ec 63 bd 7a a2 11 be b2 a3 ac 3d
       -0.04832064 -0.055645645 -0.14222136 0.0842966
0000f0 f6 7f 6c bd bc 18 98 bd ae 51 a5 bd fb c3 8d 3c
       -0.05773922 -0.07426593 -0.0807222 0.017305365
000100 38 41 51 bd 77 45 d8 bb fb 96 ef bd 1f 4b f6 3d
       -0.051087588 -0.0066000777 -0.11698719 0.12026047
000110 22 4b 8f 3d 48 79 2f be 16 75 d8 3d bf 3e d9 3d
       0.06996752 -0.17136109 0.10569207 0.10607671
000120 9a b7 08 be 2b d3 1f bd ac 4a f1 bd 91 ec a2 bc
       -0.13351288 -0.039019745 -0.11781821 -0.019888194
000130 9f bc 63 3e 52 75 e3 3d 27 95 f9 3c 48 b6 cb bd
       0.22239922 0.111063614 0.03046663 -0.09946877
000140 73 80 c5 3d c4 ce e3 bd 58 b8 64 3d d3 09 14 3c
       0.0964364 -0.11123422 0.055839866 0.009035545
000150 0a 53 e2 bd 09 46 bd 3b 76 bd 91 3c 0c d9 27 3b
       -0.11050995 0.005776171 0.017790537 0.0025611548
000160 c4 35 ae bd 51 70 5a be d3 bb 9c 3d 9f be d1 3d
       -0.08506349 -0.21331908 0.07653012 0.10241436
000170 ad a7 e2 bd 2a a4 04 be 79 55 bc 3d 29 85 b4 bd
       -0.11067138 -0.12953249 0.0919599 -0.08814461
000180 1b 42 80 bb 57 c1 69 bd c1 b4 92 3d b9 0c d3 3d
       -0.0039141304 -0.05706915 0.07163382 0.10305161
000190 85 fe 47 bc 52 6c 0f be 9a c4 0c 3e 7f c9 1e 3d
       -0.012206678 -0.14006165 0.13746873 0.03876638
0001a0 bb 3f 66 be cb b7 af bd be 99 97 be d0 d7 31 3e
       -0.22485249 -0.085799776 -0.29609483 0.17367482
0001b0 81 b5 76 3d 87 aa 85 3d 59 de 34 3d 18 71 2a 3b
       0.06023169 0.06526666 0.04415736 0.002600735
0001c0 ab 5b 00 bd 68 8e 48 3c 45 d3 3e 3b f6 02 18 be
       -0.03133742 0.012240984 0.0029117626 -0.1484488
0001d0 68 62 be 3d 17 e9 34 3e 88 3d bb bc 56 0d 8c 3d
       0.09296113 0.17667042 -0.022856489 0.06838481
0001e0 67 4a 49 be fc 54 ba 3a a3 db b2 bd 32 57 25 3d
       -0.19657288 0.0014216001 -0.08733299 0.04036636
0001f0 10 cb 6e 3b b0 89 b5 bd b1 a9 46 be c8 0f 46 3c
       0.0036436953 -0.088641524 -0.1940067 0.0120887235
000200 8f 25 63 3d d2 17 d2 bd c5 72 83 3d 36 4c 18 bd
       0.05545574 -0.102584496 0.06418375 -0.037182055
000210 85 a0 bf 3d 0f fa 05 3d 7d db f3 bd 66 45 fc bc
       0.093567885 0.032709178 -0.119070984 -0.03079481
000220 6d e7 14 3e 67 3a b0 bd d3 15 80 bd 42 7f bf 3d
       0.14541407 -0.08604889 -0.06254163 0.093504444
000230 0a d9 dc 3d 52 84 31 be fe e3 0a 3c 88 ab 0f be
       0.107835844 -0.17335632 0.008477209 -0.14030278
000240 4f 11 fd 3b 1b f4 9f 3c 5b 4a 89 bd e4 9f 34 bc
       0.0077230106 0.019525578 -0.06703635 -0.011024449
000250 bc 03 2c 3e a5 a8 7c bc 00 ba 7c 3d f9 88 41 3d
       0.167983 -0.015421067 0.06170082 0.047249768
000260 dd eb cb bd ea 87 96 bc b0 dc 97 bd 97 d3 35 3d
       -0.09957097 -0.018375356 -0.0741514 0.04439124
000270 89 7f 07 3e 60 b8 77 3d db 54 e1 3d 74 79 cd 3d
       0.13232245 0.060478568 0.11002513 0.10032931
000280 e0 3b 1f bd 53 86 25 3b 30 e1 95 3c 31 d5 53 bc
       -0.03887546 0.0025257065 0.018295854 -0.012929247
000290 e0 20 b4 bd d8 da 59 bd fa 43 e7 3d af 06 76 bd
       -0.08795333 -0.05318722 0.112922624 -0.060064968
0002a0 10 42 0f be 23 ad 7b 3d a5 78 68 3d 8b a0 16 bc
       -0.13990045 0.061444413 0.05675568 -0.00919355
0002b0 a6 86 35 be 23 cc 08 3d 42 0e 49 be 95 df 9a bd
       -0.17727146 0.033397805 -0.19634345 -0.07562176
0002c0 1e 2e 82 3e ff 43 64 be 50 0c a4 3d 30 1b 8c bd
       0.2542581 -0.22291563 0.08010161 -0.06841123
0002d0 5e 43 fc 3c fd c7 7c bc be 1b 51 bc b4 a7 8b bd
       0.030793842 -0.01542854 -0.012762962 -0.06819096
0002e0 e9 00 e3 bd 8b 6e 9e bd 1b 6e 94 bd 0e 20 e2 bd
       -0.11084158 -0.07735928 -0.072475635 -0.1104127
0002f0 b8 4a 59 bd bd ab 6c 3e e9 31 d3 3d d9 6f 92 bd
       -0.053049773 0.23112388 0.10312254 -0.071502395
000300 76 97 54 3d e7 e7 7d bd 31 a7 c9 bc 53 13 c6 bd
       0.051902257 -0.061988737 -0.024615856 -0.096716546
000310 17 ad 72 3c 11 59 24 3d 8d 10 d0 bd f6 4a 26 be
       0.014811776 0.040124003 -0.10159407 -0.16239533
000320 48 08 1a bd ce ec e3 bd b8 a5 87 bc 53 5e 20 3e
       -0.037605554 -0.11129151 -0.016558513 0.15660982
000330 4b 38 b4 bd 0c 65 c5 3d 31 d5 a9 3d 9e e9 8d 3c
       -0.087997995 0.09638414 0.08292616 0.017323311
000340 26 e9 37 be 84 8b da bc 04 08 46 bd 3d fa 0f bd
       -0.17960033 -0.026677854 -0.048347488 -0.035150755
000350 cb 4a 30 3e 09 b7 03 3e 3a 20 76 3d 53 60 65 3c
       0.17216031 0.12862791 0.060089327 0.014000016
000360 85 96 7b bd 8d 85 bc bd ef 0d 4c 3a e3 09 1a be
       -0.061422843 -0.0920516 0.00077840587 -0.15042834
000370 72 88 4c be f4 01 11 bd 82 91 85 3c 4e 90 ba 3c
       -0.19973925 -0.035402253 0.016304735 0.022773888
000380 ef 48 9a bb cb b6 24 3d e1 ab f4 bb 9c 54 8d 3d
       -0.0047084014 0.040213387 -0.0074667786 0.069009036
000390 8a b5 5c bb 57 da a2 bc e3 2f 14 3d bc 45 3c 3c
       -0.0033677542 -0.019879503 0.03617848 0.011491235
0003a0 d5 14 d0 3c 3f 5f 94 bd 02 b6 57 bd ce ab 27 3e
       0.025400558 -0.07244729 -0.05266381 0.16374132
0003b0 d9 95 28 be d4 9e f5 bc 49 4a 07 bd f2 71 53 3e
       -0.16463412 -0.029982962 -0.03302983 0.20648935
0003c0 54 e3 9c 3d 10 87 ae 3d 34 34 f1 bd 77 a6 ec 39
       0.07660547 0.08521855 -0.11777535 0.00045137454
0003d0 8e 13 c3 3b 91 5f ae bc e0 25 40 bb cc 70 11 bb
       0.005953259 -0.021285804 -0.002931945 -0.0022192476
0003e0 e6 bb 86 3d f0 d5 1f 3e 2a 65 18 3e 29 52 9b 3d
       0.065788075 0.15608954 0.14882341 0.0758403
0003f0 e5 d2 95 bd 3b 2c 1d 3e a8 48 68 3d 26 70 7d bc
       -0.073156156 0.15348904 0.056709915 -0.015468633

fc2.bias f4 [128]
000000 84 ec 10 be ec 57 97 be e7 77 66 3e 04 bb 14 3d
       -0.14152724 -0.29559267 0.22506677 0.036311164
000010 22 3c 43 be e0 27 d1 be 89 e0 03 3e 10 7d b5 3c
       -0.19065908 -0.40850735 0.12878622 0.022154361
000020 23 c9 b1 be 23 45 29 be 02 f7 d3 3d 93 40 c3 be
       -0.34723768 -0.1653028 0.103498474 -0.38135204
000030 71 0a a1 3e 45 45 97 3d 34 ab b8 be 0b 49 9c be
       0.3145328 0.07386259 -0.36068118 -0.30524477
000040 76 24 9d 3d 44 d0 a1 3d ac ee b6 be 07 57 bc be
       0.0767297 0.07901052 -0.35728967 -0.36785147
000050 cc 61 1a be 7f d1 01 3d df 80 db bc dd e2 a7 be
       -0.15076369 0.03169393 -0.026794849 -0.3279027
000060 f8 93 70 be 79 b5 b4 3d 14 d3 a3 be de 8b 94 be
       -0.23493946 0.08823676 -0.31996977 -0.2901296
000070 01 20 b4 be c0 7b 8c 3c 43 5e c0 bd 07 01 7b 3e
       -0.35180667 0.017148852 -0.09392979 0.2451211
000080 58 a8 db bd 07 be f5 3d 55 e2 34 3e b7 d7 29 be
       -0.107254684 0.119991355 0.17664464 -0.16586195
000090 d1 35 5d be ce 54 54 3e 7a 1d 3b be 59 f5 ae be
       -0.2160256 0.20735475 -0.18272963 -0.3417156
0000a0 85 18 95 be 63 04 90 3b f1 e6 6c be be e5 7a be
       -0.2912027 0.004395054 -0.23134972 -0.24501702
0000b0 9b e1 64 3e 6c 75 87 3e 32 ea 9e be 64 68 9f be
       0.22351687 0.26456773 -0.31038052 -0.3113433
0000c0 07 6d 27 be 6e b7 26 be f7 c6 bd be 2d 35 8e be
       -0.16350184 -0.1628091 -0.3706586 -0.27774945
0000d0 47 9b 9d bc 45 4f 80 be a6 29 b7 bb 17 cf 7f 3d
       -0.019239081 -0.25060478 -0.0055896817 0.062453356
0000e0 e3 57 5a bd e4 47 93 be 62 04 ec 3d ab 48 cc bd
       -0.05330647 -0.28765786 0.115242735 -0.09974798
0000f0 d6 81 c1 be aa a1 ce be 9d 47 87 be 6c 50 c8 be
       -0.3779437 -0.40357715 -0.26421824 -0.39123857
000100 3e 54 55 3e 10 89 85 be d0 31 12 be 85 10 d4 3d
       0.20832917 -0.26081133 -0.14276814 0.10354713
000110 e5 d2 7e be 7f 36 99 be 11 70 41 3d 84 f7 1e 3e
       -0.24885137 -0.2992439 0.047226015 0.15524107
000120 ce 90 aa 3e d0 1b 1b be b8 95 99 be 34 fc 14 3d
       0.33313602 -0.15147328 -0.2999704 0.036373332
000130 07 aa c0 bc 91 55 87 3d be 98 fb 3d 5e af 9b be
       -0.023518575 0.06608117 0.12284993 -0.30407232
000140 29 0d 7a be 6a 04 6d be 12 b0 b1 be 59 8e 15 3e
       -0.24419083 -0.23146215 -0.34704643 0.14605083
000150 bd 01 c2 be f3 de 9c 3d b8 97 5c 3e 49 2c 8e 3e
       -0.3789195 0.07659712 0.21542251 0.27768162
000160 b6 a8 44 3e 07 31 a4 3e d6 f0 44 be 6f f0 bd 3e
       0.19204983 0.32068655 -0.19232497 0.370975
000170 64 85 28 be bc 10 5e be b8 2e 8f be f4 04 94 be
       -0.16457134 -0.21686071 -0.2796533 -0.2891003
000180 83 6e 4a be 59 58 63 be 5d a2 fb 3d df a5 b2 be
       -0.1976872 -0.2220167 0.12286828 -0.34892175
000190 22 50 9b be cc 6a 4b 3e bf cb b7 be 0a c8 47 3e
       -0.30334574 0.19864959 -0.35897633 0.19509903
0001a0 22 21 99 be 1d c1 ab be 08 9f df 3d dd f8 a9 bd
       -0.2990809 -0.3354577 0.10919005 -0.0829942
0001b0 9f ee 01 3d 5f 2f a5 be c7 b3 76 3e 06 5c 06 3e
       0.031721707 -0.32262704 0.24092017 0.13121042
0001c0 34 37 10 3e 15 39 c1 be c0 d1 15 3e 50 29 c7 3d
       0.14083558 -0.37738863 0.14630795 0.097246766
0001d0 c4 0b a3 be 4f f6 5f 3e 9c f3 5f 3e c9 a4 4b 3d
       -0.31844914 0.21871303 0.21870273 0.0497177
0001e0 05 53 85 be dc 4b 56 3e b6 70 c2 be b4 72 bb be
       -0.260399 0.20927376 -0.37976617 -0.3661095
0001f0 28 9a 96 be db 80 83 be ed 3f 97 be 36 2b a2 3c
       -0.29414487 -0.25684246 -0.2954096 0.019795995

fc3.weight f4 [1, 128]
000000 90 37 86 bd c4 1c 8b bd d9 94 84 3d 8d 92 89 3d
       -0.065535665 -0.06792596 0.06473703 0.067174055
000010 4a 8a cf bd f8 be f0 bd 76 db 7f 3d 62 86 a9 3d
       -0.101337984 -0.117551744 0.062465154 0.082775846
000020 4f ee bf bd b8 80 9f bd 7f 64 f9 3d 6e 58 8e bd
       -0.09371626 -0.07788223 0.12177371 -0.069504604
000030 37 a4 9c 3d e8 b7 82 3d 85 fc 24 be 62 64 e5 bd
       0.07648509 0.063827336 -0.16111954 -0.11200787
000040 e8 e9 b0 3d ab 53 91 3d 7c bf c2 bd 8a 4f dc bd
       0.08638364 0.070960365 -0.09509179 -0.10757358
000050 cb ee ba 3d d9 54 82 3d 4a 80 a3 3d d1 9f e2 bd
       0.091275774 0.0636384 0.079834536 -0.11065639
000060 ef 83 99 bd c2 94 48 3d 61 58 5e be 26 d5 60 be
       -0.074958675 0.04896999 -0.21713401 -0.2195631
000070 21 66 87 bd b7 ee 93 3d 0a eb 95 3d 59 a1 9a 3d
       -0.066112764 0.072232656 0.07320221 0.07550306
000080 ea 7f bf 3d 6a 29 8f 3d a9 7b a1 3d 53 ba 9a bd
       0.093505695 0.06990321 0.078849144 -0.0755507
000090 a2 3c b8 3d 41 7f c5 3d fe 25 3e 3e 28 e5 e5 bd
       0.0899594 0.096434124 0.1856918 -0.11225349
0000a0 af a8 d2 bd 6b a0 90 3d 93 7b 74 bd a3 49 87 bd
       -0.1028608 0.07061847 -0.059688162 -0.06605842
0000b0 e2 fd 9d 3d 04 31 9c 3d 32 9b d8 bd 67 05 aa bd
       0.0771444 0.076265365 -0.10576476 -0.08301812
0000c0 aa 07 b0 bd be 76 28 bd 8a c2 a9 bd 77 04 bb bd
       -0.08595212 -0.041128866 -0.082890585 -0.09131711
0000d0 75 3a 8c 3d cb df 5e bd f0 7f 88 3d 70 90 d1 3d
       0.06847087 -0.054412644 0.06665027 0.102326274
0000e0 a7 ee b4 3d 40 e3 a4 bd 7c 95 a5 3d 61 32 23 bd
       0.08834582 -0.08051157 0.080851525 -0.039842967
0000f0 0b 3d 9a bd 18 10 3a be 2b df 07 be c2 61 eb bd
       -0.07531174 -0.18170202 -0.13268726 -0.11493255
000100 25 91 a4 3d a8 c6 26 bd 14 af da bd 59 a8 83 3d
       0.080354966 -0.040716797 -0.10677925 0.06428594
000110 c8 d1 f5 bd 79 fe a4 bd 2c 6b 9e 3d 94 84 98 3d
       -0.12002903 -0.08056349 0.07735285 0.07447162
000120 8d 25 99 3d fb 07 16 bd 5a a6 b4 bd a3 d4 5f 3d
       0.07477865 -0.036628705 -0.088207915 0.054646146
000130 6e 04 fb 3d 98 4c d7 3d 34 df 8b 3d 78 bb 25 be
       0.12256704 0.10512656 0.06829682 -0.16184795
000140 02 a1 c5 bd a0 eb 7e bd 1c 5e 0a be c0 bc 96 3d
       -0.096498504 -0.06223643 -0.13512462 0.0736022
000150 ac df ec bd e4 b8 9d 3d 67 1c 8f 3d 9f 42 4b 3d
       -0.115660995 0.07701281 0.06987839 0.04962408
000160 29 3d a9 3d fa e9 bf 3d 1a f5 c5 bd 4c 9f a1 3d
       0.082636185 0.09370799 -0.0966589 0.078917116
000170 01 61 74 bd 64 48 ad bd 34 cc b5 bd 18 c9 7a 3e
       -0.059662823 -0.08461073 -0.08876839 0.24490774
000180 df ce 86 bd 34 16 99 bd ba bc aa 3d 39 8b c2 bd
       -0.06582426 -0.07474938 0.08336778 -0.09499211
000190 20 09 0a be 51 8e 88 3d 3a c4 35 be 0d 9a 9c 3d
       -0.13480043 0.0666777 -0.17750636 0.0764657
0001a0 01 d1 22 3e ab f4 31 3e 8b ef 65 3d bf b7 fb 3d
       0.15900041 0.1737849 0.05613665 0.12290906
0001b0 e3 19 94 3d b7 ec 6a bd db a0 bd 3d c7 b2 91 3d
       0.072315 -0.057354655 0.09259196 0.07114177
0001c0 0a 54 a8 3d 3b a9 32 be 86 03 c1 3d d1 46 88 3d
       0.08219154 -0.17447369 0.094245 0.06654132
0001d0 08 91 40 be 2e 6b 94 3d 3d e3 97 3d 5c 8f c3 3d
       -0.18805325 0.072470054 0.07416389 0.09548828
0001e0 5e a3 7b bd 9c 6c 93 3d 47 f9 ab bd 56 ac fa bd
       -0.061435096 0.0719845 -0.08397155 -0.12239902
0001f0 2d dd a2 bd c2 ab a2 bd 79 3d 9d bd 03 ab d0 3d
       -0.07952342 -0.079429165 -0.076777406 0.10188868
