checkpoint_critic.pth (torch_old, 89679 bytes, 9 tensors)

fcs1.weight f4 [128, 33]
-0.12522459 0.046015996 -0.07502652 0.076288104 -0.24272524 -0.06797318 0.2614694 0.017644208
0.15929043 -0.030762946 -0.0034417198 0.011474082 0.083147116 0.119723275 -0.05592991 0.13181904
0.10491086 -0.067622125 -0.18069735 0.13762428 -0.008957429 -0.0031557307 0.01577125 -0.021639708
-0.0017007893 0.0760813 -0.028603368 -0.022148294 -0.11221645 0.051090457 0.04296379 -0.008974887
-0.465459 -0.019234786 -0.24496442 0.10477301 -0.06993451 0.27070493 -0.12089039 0.08253842
0.069152266 -0.0148188025 0.10313614 -0.0057107015 -0.06652345 -0.039540313 -0.00524724 0.14617127
-0.08292282 0.20644008 0.058787193 0.098131105 -0.22655687 -0.038032185 0.041069046 -0.030211966
-0.02948017 0.012978358 0.023374397 -0.0016047494 0.12015791 0.011862422 -0.0062098354 -0.064924195
0.056509487 0.4606797 0.024791172 -0.0178746 0.053582367 0.050747894 -0.049820215 0.13760985
0.01791429 0.027083121 0.029453428 0.039076705 -0.0038422644 0.0018871271 0.0104899695 -0.012117407
0.02749263 -0.03782946 -0.120452724 -0.082076505 -0.02299908 0.09422404 -0.0018406166 -0.01186064
-0.0032603093 0.004919779 0.0011773538 -0.025148597 -0.09678118 0.18793331 -0.028919255 0.050114803
-0.13005568 -0.0069553033 0.91951054 -0.12865078 0.24087651 -0.03686745 0.12871942 -0.11213294
-0.1470362 0.04751606 -0.0662811 -0.05368731 0.0927783 -0.008496399 -0.054577474 -0.054775164
0.12337792 -0.083057836 0.07763526 -0.010296712 0.08479926 -0.018718142 -0.008818511 0.054919723
-0.115109675 0.04439557 -0.03996047 -0.054345526 -0.041894164 -0.14390227 -0.080622114 -0.05289564
-0.020357974 -0.03588454 0.059247904 0.22235957 0.00064837415 0.124170065 0.020988423 -0.4945692
0.34976724 0.107046835 -0.045508843 -0.007617286 -0.2465653 -0.12045996 -0.025210235 0.059880808
0.0067166146 -0.12656546 -0.0155609865 -0.06496816 0.10611519 -0.10710512 0.14517479 -0.04722608
0.015742395 0.019331876 0.049595885 -0.0022055153 0.020467179 0.00926939 0.09528802 0.023633614
0.06000169 0.02752991 -0.069549665 0.061222352 0.28791162 -0.052801166 -0.11582373 0.0013954837
-0.16455318 -0.11072615 -0.37333348 0.24800143 0.001084237 0.013426406 0.0918019 0.01988249
-0.07163297 0.019185862 0.057520512 0.062894516 -0.01037867 0.053355735 -0.06441006 -0.16379702
-0.16567582 -0.019512277 0.016141966 0.008515685 0.07459739 0.022928456 -0.0041214474 0.028163094
0.10676326 0.034128048 0.016297586 -0.08106086 -0.026253998 -0.71582675 -0.020426271 -0.18328926
0.030217744 -0.16528465 0.05833779 0.13025771 -0.13322671 0.04356121 -0.13766721 -0.15871863
0.037220504 0.01592559 0.07085928 0.007553096 0.2317482 0.11591693 -0.134396 0.06335784
-0.040091887 -0.108096614 -0.03500689 0.0123629235 0.0534797 0.042596288 0.014479621 0.050559096
0.14561538 0.16992196 -0.055241343 -0.06801658 -0.04718282 0.02559632 -0.09294126 0.024826383
0.13411975 0.075333536 0.2794674 -0.34857193 -0.04182622 0.043145336 0.07645642 0.08328551
-0.017621813 0.053047735 -0.011411293 0.01181407 0.09705853 -0.1101572 -0.11015822 -0.14900264
0.14583309 0.03396129 0.029879874 -0.104448006 -0.069226556 -0.13044226 0.07080958 0.0054410934
00000000: e03a 00be 457b 3c3d 81a7 99bd f03c 9c3d
00000010: f78c 78be 8635 8bbd 51df 853e 968a 903c
00000020: 081d 233e 9302 fcbc 7a8e 61bb cafd 3b3c
00000030: 0949 aa3d 7a31 f53d c316 65bd 92fb 063e
00000040: 81db d63d 787d 8abd ba08 39be 61ed 0c3e
00000050: 2ec2 12bc 60d0 4ebb b532 813c c245 b1bc
00000060: 05ed deba 83d0 9b3d 9c51 eabc 5770 b5bc
00000070: bdd1 e5bd 3a44 513d cdfa 2f3d 680b 13bc
00000080: a450 eebe 4592 9dbc f4d7 7abe 3b93 d63d
00000090: d339 8fbd d699 8a3e 6195 f7bd e709 a93d
000000a0: b49f 8d3d 90ca 72bc 0a39 d33d d620 bbbb
000000b0: 723d 88bd 06f5 21bd 0af1 abbb ecad 153e
000000c0: 70d3 a9bd 0765 533e d7ca 703d f6f8 c83d
000000d0: 86fe 67be a3c7 1bbd 0438 283d 167f f7bc
000000e0: 6680 f1bc 2ea3 543c aa7b bf3c 7456 d2ba
000000f0: 5a15 f63d 9b5a 423c e07b cbbb faf6 84bd
00000100: 7e76 673d 36de eb3e db16 cb3c c16d 92bc
00000110: 2f79 5b3d 06dd 4f3d 4810 4cbd 99e9 0c3e
00000120: fdc0 923c 6cdd dd3c 5148 f13c e50e 203d
00000130: 80ce 7bbb 7a59 f73a 1fde 2b3c 1788 46bc
00000140: 3938 e13c 10f3 1abd ebaf f6bd ba17 a8bd
00000150: 9168 bcbc 89f8 c03d d840 f1ba 2153 42bc
00000160: eaaa 55bb 1936 a13b 7051 9a3a 6e04 cebc
00000170: 3635 c6bd 9771 403e 13e8 ecbc 2e45 4d3d
00000180: 512d 05be 50e9 e3bb 0b65 6b3f 08bd 03be
00000190: 55a8 763e 5302 17bd 06cf 033e f4a5 e5bd
000001a0: a890 16be 33a0 423d 63be 87bd 3ae7 5bbd
000001b0: 8d02 be3d 7b34 0bbc a18c 5fbd ec5b 60bd
000001c0: 90ad fc3d 3a1a aabd 3cff 9e3d 8ab3 28bc
000001d0: 3cab ad3d ca56 99bc 847b 10bc 81f3 603d
000001e0: 9fbe ebbd 21d8 353d 97ad 23bd 6a99 5ebd
000001f0: 3799 2bbd 1e5b 13be 351d a5bd 19a9 58bd
00000200: c4c5 a6bc abfb 12bd eead 723d 3ab2 633e
00000210: a7f7 293a e04c fe3d eaef ab3c 2d38 fdbe
00000220: b114 b33e 5f3b db3d 7b67 3abd 6d9a f9bb
00000230: 9d7b 7cbe b6b3 f6bd b285 cebc 9445 753d
00000240: 0c17 dc3b 609a 01be 82f3 7ebc 070e 85bd
00000250: ec52 d93d ee59 dbbd b3a8 143e 2270 41bd
00000260: 32f6 803c e25d 9e3c 0e25 4b3d 688a 10bb
00000270: c9aa a73c a4de 173c 5e26 c33d 489b c13c
00000280: 55c4 753d 6886 e13c 0e70 8ebd 4ac4 7a3d
00000290: 2769 933e 0946 58bd fe34 edbd aae8 b63a
000002a0: a180 28be 64c4 e2bd 9125 bfbe 16f4 7d3e
000002b0: f51c 8e3a 6efa 5b3c a202 bc3d 9be0 a23c
000002c0: 4eb4 92bd ab2b 9d3c a19a 6b3d d7ce 803d
000002d0: 4c0b 2abc 8b8b 5a3d 6ce9 83bd 68ba 27be
000002e0: eca6 29be 36d8 9fbc 283c 843c 5f85 0b3c
000002f0: 84c6 983d 75d4 bb3c 350d 87bb 4ab6 e63c
00000300: b2a6 da3d dac9 0b3d 8482 853c 3c03 a6bd
00000310: a012 d7bc 6c40 37bf ff54 a7bc 2eb0 3bbe
00000320: 348b f73c 6140 29be 9bf3 6e3d 4762 053e
00000330: 956c 08be 3d6d 323d a2f8 0cbe 2387 22be
00000340: 8774 183d 6276 823c ac1e 913d f67f f73b
00000350: 664f 6d3e db65 ed3d 1b9f 09be c1c1 813d
00000360: 6437 24bd c261 ddbd 6263 0fbd dc8d 4a3c
00000370: 880d 5b3d 7279 2e3d ef3b 6d3c 0e17 4f3d
00000380: 331c 153e 0600 2e3e bf44 62bd 474c 8bbd
00000390: c642 41bd 60af d13c fd57 bebd b360 cb3c
000003a0: b056 093e 7848 9a3d 5a16 8f3e 0578 b2be
000003b0: f851 2bbd 2ab9 303d 2f95 9c3d 9891 aa3d
000003c0: 9f5b 90bc 9548 593d 6ff6 3abc cd8f 413c
000003d0: 9fc6 c63d 199a e1bd a29a e1bd 2694 18be
000003e0: 4555 153e fe1a 0b3d a3c6 f43c d6e8 d5bd
000003f0: a7c6 8dbd a892 05be 9d04 913d 334b b23b

fcs1.bias f4 [128]
0.1345507 0.12109951 -0.18594338 0.03375568 -0.036977097 -0.07679051 0.07870225 -0.1907831
-0.17178988 0.21374212 -0.15545936 0.015004667 0.27731934 0.016307076 -0.027403515 0.03735598
-0.08599902 -0.20234567 -0.15535575 -0.046581656 -0.05872705 -0.24400474 -0.18599164 -0.22556017
-0.113480486 -0.07987654 -0.082970984 -0.11397098 -0.087528504 0.15650064 0.13611338 -0.049136613
0.013649088 -0.11417302 -0.17394465 -0.0045894026 -0.23020387 -0.08707647 -0.2147537 0.024156282
-0.095130466 0.11130504 -0.24038638 0.24866506 -0.034599125 0.0067695524 -0.25418696 -0.15649381
0.02952494 -0.03475615 0.15221092 -0.021875262 -0.08770661 -0.14190046 -0.015109625 0.007323477
-0.064697534 -0.09204314 0.028734006 -0.18217623 -0.2599549 0.15258549 0.07166499 -0.17249878
-0.34996328 -0.11085311 -0.025007155 -0.21685052 -0.118397236 -0.22952971 -0.32908672 -0.12033961
0.081679754 0.108465806 -0.08687292 -0.004527647 0.11378499 -0.1651724 -0.018929401 -0.13683629
-0.14834869 0.05390593 -0.014837317 0.049709395 -0.054859813 -0.114743985 -0.06479305 -0.093340725
-0.011713998 -0.07589706 -0.17914376 0.07584641 -0.083050795 -0.16749687 0.17004189 -0.001970285
-0.093571685 -0.14739853 0.1693892 0.0019203685 -0.27726683 -0.012743432 -0.17912173 -0.09025334
0.117615566 -0.23584095 -0.13229807 -0.18135203 0.012704723 -0.2493343 0.06486137 0.17335956
-0.05783721 0.048559204 -0.12880015 -0.16373684 0.14509752 -0.007155268 -0.18816409 -0.019233884
-0.26683253 0.20315848 0.019812375 -0.11460658 0.029732173 -0.03005142 0.13652475 0.034069035
00000000: a9c7 093e 0503 f83d f167 3ebe 6543 0a3d
00000010: 4c75 17bd 5844 9dbd a52e a13d a55c 43be
00000020: b0e9 2fbe 37df 5a3e bd30 1fbe 23d6 753c
00000030: cdfc 8d3e 6b96 853c 567d e0bc 9602 193d
00000040: 4120 b0bd b433 4fbe 9415 1fbe 68cc 3ebd
00000050: c68b 70bd 61dc 79be 9874 3ebe 3ff9 66be
00000060: 7568 e8bd 5096 a3bd b1ec a9bd 9e69 e9bd
00000070: 2542 b3bd b441 203e 4e61 0b3e 7943 49bd
00000080: 6da0 5f3c 8bd3 e9bd 8c1e 32be b362 96bb
00000090: 90ba 6bbe 2655 b2bd 65e8 5bbe 65e3 c53c
000000a0: c3d3 c2bd e6f3 e33d d927 76be 0ea2 7e3e
000000b0: d0b7 0dbd 1fd3 dd3b cb24 82be ea3f 20be
000000c0: 49de f13c 775c 0ebd 2edd 1b3e c033 b3bc
000000d0: 869f b3bd 5b4e 11be 5c8e 77bc c7f9 ef3b
000000e0: 2480 84bd 1d81 bcbd 9463 eb3c 688c 3abe
000000f0: cf18 85be 5f3f 1c3e 18c5 923d 85a3 30be
00000100: 632e b3be f506 e3bd cedb ccbc 100e 5ebe
00000110: 407a f2bd d609 6bbe 0e7e a8be 9d74 f6bd
00000120: b747 a73d 5223 de3d 6eea b1bd a85c 94bb
00000130: 1b08 e93d f422 29be d511 9bbc d01e 0cbe
00000140: b8e8 17be 77cc 5c3d 3818 73bc 149c 4b3d
00000150: afb4 60bd e5fe eabd 38b2 84bd 6c29 bfbd
00000160: 12ec 3fbc eb6f 9bbd 7671 37be 5d55 9b3d
00000170: 8916 aabd 4d84 2bbe 761f 2e3e e61f 01bb
00000180: 83a2 bfbd a4ef 16be 5d74 2d3e e0b4 fb3a
00000190: ebf5 8dbe d4c9 50bc b06b 37be bed6 b8bd
000001a0: 6ee0 f03d 4a80 71be 2579 07be 59b4 39be
000001b0: 7827 503c 7e51 7fbe 0ad6 843d 2b85 313e
000001c0: b6e6 6cbd 04e6 463d 30e4 03be a1aa 27be
000001d0: 7294 143e bd76 eabb 16ae 40be 6190 9dbc
000001e0: 469e 88be c708 503e 904d a23c dbb6 eabd
000001f0: e390 f33c 652e f6bc 25cd 0b3e f98b 0b3d

bn1.weight f4 [128]
0.85174304 0.8380561 1.3385919 0.8774971 0.77599806 1.032521 0.9665223 0.78198534
1.0619463 1.0122179 0.86616987 0.9056008 0.8708708 0.8505944 0.7790856 0.949715
1.0951082 0.92214787 0.9867751 0.8879062 0.8746971 0.91655564 1.0767248 0.6645807
0.87564737 0.8281006 0.9087922 0.92447495 0.7886752 0.8945854 1.127361 1.1387206
0.91607785 0.9300384 0.8499048 1.2103264 0.9647564 0.80142826 0.8811516 0.95179355
1.0323681 1.0622016 0.8033753 0.9655734 0.8153574 0.968613 0.8050043 1.1691436
0.93198264 0.9083908 0.9720284 0.9670484 0.8693918 1.0960145 0.9969953 0.90161264
1.0401883 0.91529995 0.97313535 0.91992694 0.81950176 0.99226224 0.9326917 0.9782169
0.8005444 0.8965225 0.82276744 0.9837513 1.1743265 0.8702326 0.9265848 1.0151671
0.99235094 0.83859086 0.7857503 0.90792924 0.9075213 0.9356091 0.8652194 0.7084013
0.7790251 0.9561905 0.93716854 1.0308813 0.9149661 0.9250936 1.0171318 1.0777901
1.1612287 1.0636334 1.0740256 1.1651056 0.9809224 0.87178576 0.84269285 0.8448846
0.8100098 1.0253196 0.8363612 0.9076635 0.8772835 0.8391072 0.9894771 0.90294904
1.0429934 1.1402965 1.1825494 0.91727304 0.7282398 0.97971135 0.8311299 0.8381615
0.96562916 0.75692683 0.73590195 0.9520939 0.84599924 1.0322217 0.8223717 0.9506177
0.99750423 0.93679386 1.047924 0.89191407 0.7694529 0.75134224 1.1821328 0.7499814
00000000: d50b 5a3f d88a 563f fb56 ab3f a6a3 603f
00000010: cfa7 463f a629 843f 016e 773f 3130 483f
00000020: dbed 873f 5b90 813f 4fbd 5d3f 74d5 673f
00000030: 64f1 5e3f 8ec0 593f 2772 473f 8620 733f
00000040: 812c 8c3f e211 6c3f 4b9d 7c3f d24d 633f
00000050: 26ec 5f3f 64a3 6a3f 1ed2 893f f621 2a3f
00000060: 6d2a 603f 67fe 533f 9ba6 683f 64aa 6c3f
00000070: 9ee6 493f 8c03 653f 5e4d 903f 99c1 913f
00000080: 1484 6a3f ff16 6e3f 5c93 593f faeb 9a3f
00000090: 47fa 763f 672a 4d3f 2793 613f bea8 733f
000000a0: a324 843f 39f6 873f 01aa 4d3f d12f 773f
000000b0: 43bb 503f 06f7 773f c314 4e3f 7fa6 953f
000000c0: 6a96 6e3f 4d8c 683f dad6 783f 7c90 773f
000000d0: 7690 5e3f 344a 8c3f 153b 7f3f 16d0 663f
000000e0: e424 853f 1951 6a3f 661f 793f 5580 6b3f
000000f0: deca 513f e604 7e3f e2c4 6e3f 6c6c 7a3f
00000100: 7af0 4c3f 8082 653f e3a0 523f 20d7 7b3f
00000110: 5550 963f 90c7 5e3f a934 6d3f fff0 813f
00000120: b60a 7e3f e4ad 563f ef26 493f 0d6e 683f
00000130: 5153 683f 1484 6f3f 057f 5d3f ca59 353f
00000140: 306e 473f e7c8 743f 47ea 6f3f ebf3 833f
00000150: 383b 6a3f efd2 6c3f 6031 823f 07f5 893f
00000160: 24a3 943f 2425 883f ac79 893f 2e22 953f
00000170: bb1d 7b3f 5a2d 5f3f b8ba 573f 5b4a 583f
00000180: cd5c 4f3f ac3d 833f c51b 563f a35c 683f
00000190: a795 603f bbcf 563f 5f4e 7d3f ab27 673f
000001a0: cf80 853f 3cf5 913f c75d 973f 68d2 6a3f
000001b0: ec6d 3a3f 5dce 7a3f eec4 543f c191 563f
000001c0: 7933 773f f5c5 413f 1264 3c3f 6dbc 733f
000001d0: 6893 583f d71f 843f f486 523f ae5b 733f
000001e0: 705c 7f3f b9d1 6f3f 6022 863f 7b54 643f
000001f0: defa 443f f757 403f 2150 973f c8fe 3f3f

bn1.bias f4 [128]
0.2192727 0.020120576 0.09755171 0.3328131 0.25175047 0.11236465 -0.15494825 -0.03994905
-0.22323565 0.26764396 0.34495994 -0.037205886 0.1403063 -0.037028316 -0.112485126 0.31939968
-0.22564562 0.009018111 0.34251434 0.061640155 -0.047740083 -0.21875255 0.23694256 -0.052195035
-0.3292264 -0.11019888 0.16799197 -0.05692504 0.08367889 0.2932081 0.042170692 0.009745679
0.11470036 0.097420275 0.22168106 0.029322766 0.11412301 -0.3197336 0.28895062 0.0979494
0.23336983 0.1223475 0.2991399 0.16606921 -0.2142508 0.19352417 -0.051207762 0.20277396
0.03167343 -0.10446203 0.040375132 0.08702994 -0.36525592 0.25291294 -0.061702985 0.09218735
0.42398003 -0.12136173 0.034639377 0.10215727 0.14321172 0.07547593 0.12390512 0.23095293
-0.044548906 -0.14024384 -0.1843561 0.3951457 0.09772704 -0.09987003 0.24126157 -0.24205825
0.12045001 0.20016529 0.16961332 -0.22090334 -0.14142509 0.19711897 0.29745713 0.09994419
-0.19139433 0.23518506 -0.17537898 0.08847186 -0.16531032 0.06328874 -0.22552514 -0.0035780333
0.18802497 0.11383485 0.07252902 0.19620706 0.1474225 -0.12928243 -0.13279328 0.07797358
-0.008608131 0.20559677 -0.2606732 -0.18574259 0.40335208 0.24212065 0.017913172 -0.23265967
0.10439064 0.11937618 0.09881206 -0.21284738 -0.13550466 -0.10682483 -0.014192382 0.16153552
0.026174761 0.17706949 0.24836512 0.2571969 -0.23919533 0.13192475 -0.29048085 0.002530095
0.21181293 -0.19821827 0.022188291 0.27018732 0.31650972 0.12986061 0.17665988 0.12464513
00000000: 0689 603e e8d3 a43c 31c9 c73d 7b66 aa3e
00000010: 70e5 803e 701f e63d c1aa 1ebe 9da1 23bd
00000020: e397 64be a108 893e 979e b03e 3365 18bd
00000030: 74ac 0f3e 01ab 17bd 9a5e e6bd 5b88 a33e
00000040: a50f 67be b3c0 133c 0a5e af3e 637a 7c3d
00000050: 1b8b 43bd ab00 60be 12a1 723e 76ca 55bd
00000060: 5d90 a8be f3af e1bd 1606 2c3e 3b2a 69bd
00000070: d65f ab3d 5f1f 963e 2dbb 2c3d 57ac 1f3c
00000080: 06e8 ea3d 4884 c73d 5c00 633e 4c36 f03c
00000090: 53b9 e93d 1fb4 a3be 56f1 933e b299 c83d
000000a0: 80f8 6e3e 5391 fa3d dd28 993e 0c0e 2a3e
000000b0: 9064 5bbe 332b 463e 3bbf 51bd faa3 4f3e
000000c0: 00bc 013d 30f0 d5bd 6560 253d c13c b23d
000000d0: d302 bbbe ce7d 813e 45bc 7cbd b9cc bc3d
000000e0: e913 d93e 808c f8bd 05e2 0d3d d537 d13d
000000f0: 18a6 123e 2093 9a3d f8c1 fd3d ed7e 6c3e
00000100: ea78 36bd 159c 0fbe d8c7 3cbe 8a50 ca3e
00000110: 1d25 c83d a988 ccbd 460d 773e 1ede 77be
00000120: 7fae f63d 21f8 4c3e 1daf 2d3e 7c34 62be
00000130: bdd1 10be 8ed9 493e 4d4c 983e 8aaf cc3d
00000140: e0fc 43be 5ad4 703e 8c96 33be bc30 b53d
00000150: 1c47 29be 879d 813d 10f0 66be 707d 6abb
00000160: 9e89 403e 3f22 e93d 188a 943d 81ea 483e
00000170: edf5 163e 9d62 04be f6fa 07be 9db0 9f3d
00000180: 1e09 0dbc f687 523e f576 85be 4e33 3ebe
00000190: 2a84 ce3e 7aee 773e a5be 923c 563e 6ebe
000001a0: c3ca d53d 807b f43d fa5d ca3d aaf4 59be
000001b0: bcc1 0abe fac6 dabd 2a87 68bc 9169 253e
000001c0: 746c d63c b451 353e 6d53 7e3e 50af 833e
000001d0: 9fef 74be 4817 073e e8b9 94be f3cf 253b
000001e0: 7de5 583e bbf9 4abe 38c4 b53c fe55 8a3e
000001f0: 900d a23e 2efa 043e 54e6 343e f245 ff3d

bn1.running_mean f4 [128]
0.43815973 0.20192012 0.11669263 0.24307926 0.04392859 0.16373155 0.22201899 0.19411068
0.23625453 0.1793786 0.14038032 0.5444683 0.73912495 0.091443315 0.19540395 0.31355837
0.21634947 0.07309074 0.45780906 0.112766966 0.1921076 0.14023618 0.17466825 0.09303289
0.4179194 0.17949261 0.17825475 0.16630955 0.251792 0.2245508 0.33554485 0.13317984
0.10520907 0.061562113 0.09828705 0.15728453 0.060309336 0.36814043 0.13845 0.19465032
0.62338233 0.1743011 0.2004889 0.3666851 0.20062734 0.21104228 0.26320326 0.23109668
0.33150202 0.64286274 0.3239021 0.40882158 0.1629381 0.1286222 0.0967197 0.18973772
0.3672513 0.13250624 0.28253216 0.34733045 0.16435534 0.24712825 0.41978636 0.09678624
0.03910922 0.2057533 0.4329033 0.22033855 0.2250061 0.13283972 0.06521599 0.35384104
0.47374836 0.33310133 0.04180146 0.28788984 0.2896647 0.306907 0.32993624 0.17731628
0.1335565 0.18283415 0.23886256 0.25815773 0.2797485 0.10551625 0.21892568 0.25187767
0.20811622 0.15037072 0.075336814 0.32294378 0.281225 0.45029762 0.31449437 0.20606364
0.44867152 0.18324223 0.14890179 0.13358964 0.21861444 0.3426104 0.18789136 0.32262355
0.29854453 0.06386311 0.09670681 0.15104614 0.51911926 0.093554474 0.46098143 0.32326877
0.30389467 0.16242003 0.10418952 0.13274495 0.3907661 0.2581448 0.39684284 0.26652226
0.12757678 0.5849257 0.19368437 0.17080437 0.08182115 0.16463849 0.42582488 0.13927095
00000000: 7956 e03e 26c4 4e3e 8cfc ee3d c5e9 783e
00000010: 77ee 333d 3ea9 273e f258 633e f3c4 463e
00000020: b5ec 713e 06af 373e dcbf 0f3e 4662 0b3f
00000030: 4b37 3d3f a246 bb3d f917 483e b98a a03e
00000040: b78a 5d3e 99b0 953d f365 ea3e 5ef2 e63d
00000050: dbb7 443e 139a 0f3e 3cdc 323e 0788 be3d
00000060: 88f9 d53e e9cc 373e 6a88 363e 0d4d 2a3e
00000070: e2ea 803e a5f0 653e 89cc ab3e 4c60 083e
00000080: da77 d73d 8e28 7c3d b94a c93d 320f 213e
00000090: ec06 773d e77c bc3e d6c5 0d3e 6a52 473e
000000a0: fc95 1f3f fd7b 323e f64c 4d3e 26be bb3e
000000b0: 4171 4d3e 781b 583e 94c2 863e 9ca4 6c3e
000000c0: a2ba a93e a792 243f 7fd6 a53e 1051 d13e
000000d0: 3fd9 263e 8ab5 033e fa14 c63d 9b4a 423e
000000e0: 5d08 bc3e b7af 073e 0ea8 903e 4cd5 b13e
000000f0: c44c 283e 300f 7d3e 3dee d63e dd37 c63d
00000100: fd30 203d feb0 523e 80a5 dd3e 6ea0 613e
00000110: 0068 663e 2307 083e f68f 853d a72a b53e
00000120: 258f f23e 428c aa3e 0238 2b3d 4c66 933e
00000130: ee4e 943e ea22 9d3e 67ed a83e 6692 353e
00000140: 09c3 083e e038 3b3e 6398 743e 402d 843e
00000150: 323b 8f3e e718 d83d 0e2e 603e 1cf6 803e
00000160: 6b1c 553e c8fa 193e 304a 9a3d e358 a53e
00000170: b9fc 8f3e 698d e63e 6805 a13e 5902 533e
00000180: 46b8 e53e daa3 3b3e b679 183e b9cb 083e
00000190: 77dc 5f3e a16a af3e 9866 403e ea2e a53e
000001a0: d4da 983e aaca 823d 380e c63d d7ab 1a3e
000001b0: 00e5 043f 7d99 bf3d c205 ec3e 7c83 a53e
000001c0: 1598 9b3e 7051 263e 5161 d53d 4bee 073e
000001d0: 7f12 c83e 8e2b 843e fc2e cb3e 9b75 883e
000001e0: 7da3 023e b1bd 153f 3255 463e 57e7 2e3e
000001f0: d991 a73d fe96 283e b805 da3e 0b9d 0e3e

bn1.running_var f4 [128]
0.21866845 0.0725012 0.06151521 0.18743594 0.030945195 0.08156798 0.15645711 0.089807495
0.15133977 0.11964863 0.108263224 0.57463574 0.47399786 0.079238884 0.16670756 0.21515894
0.14023489 0.028874764 0.2355754 0.040465835 0.14919768 0.09201804 0.0971775 0.061356757
0.20106682 0.12881199 0.11703899 0.0963587 0.14164846 0.12587382 0.2398994 0.06144538
0.060675316 0.047052745 0.051834982 0.108322755 0.03415723 0.2828396 0.09432769 0.1013742
0.61896515 0.0884806 0.13531224 0.15738219 0.17269917 0.13043237 0.1691591 0.13645439
0.17007731 0.52931714 0.17810453 0.25103 0.12612411 0.07540356 0.054410804 0.13314445
0.21889016 0.10745364 0.1316435 0.2713277 0.08298876 0.12934206 0.18222094 0.07652189
0.015388626 0.18159303 0.36445233 0.13305841 0.120617434 0.06913276 0.030329745 0.22866912
0.368062 0.16035275 0.028616631 0.14792632 0.13696519 0.20287795 0.18251371 0.11468972
0.0544448 0.077342495 0.16514851 0.1384257 0.17316689 0.08379503 0.18101425 0.15967663
0.125936 0.063778296 0.030081796 0.15757512 0.17133273 0.40543872 0.17577949 0.17803922
0.32754853 0.12094345 0.102501564 0.106123045 0.19843706 0.30827713 0.07565823 0.23611993
0.14648381 0.030559719 0.03643941 0.0891377 0.23357935 0.051345404 0.22766194 0.2380904
0.15257768 0.085516065 0.05405886 0.09251077 0.16304398 0.14047739 0.26858556 0.14525643
0.08615431 0.42244768 0.08949439 0.103197426 0.06627737 0.07206764 0.20680504 0.10805951
00000000: 9fea 5f3e 827b 943d 5ff7 7b3d 35ef 3f3e
00000010: c780 fd3c 1d0d a73d 4b36 203e feec b73d
00000020: d0f8 1a3e 570a f53d 1cb9 dd3d 541b 133f
00000030: d9af f23e ff47 a23d 63b5 2a3e a052 5c3e
00000040: bc99 0f3e c58a ec3c ad3a 713e 81bf 253d
00000050: 47c7 183e f473 bc3d ff04 c73d 3951 7b3d
00000060: 76e4 4d3e 4ae7 033e 23b2 ef3d b657 c53d
00000070: 4b0c 113e 11e5 003e 30a8 753e 27ae 7b3d
00000080: ae86 783d 61ba 403d eb50 543d 52d8 dd3d
00000090: 74e8 0b3d 5ad0 903e e02e c13d 479d cf3d
000000a0: 8074 1e3f 5135 b53d 4b8f 0a3e cc28 213e
000000b0: 0dd8 303e 1090 053e 0b38 2d3e b3ba 0b3e
000000c0: bf28 2e3e 5481 073f 0961 363e 0187 803e
000000d0: ae26 013e 2f6d 9a3d dddd 5e3d 0557 083e
000000e0: be24 603e a710 dc3d 8ecd 063e 77eb 8a3e
000000f0: 03f6 a93d 3f72 043e 2098 3a3e 82b7 9c3d
00000100: 9320 7c3c 86f3 393e 7f99 ba3e 7740 083e
00000110: 4606 f73d 7a95 8d3d 1676 f83c 3d28 6a3e
00000120: 9f72 bc3e 8333 243e 6d6d ea3c ff79 173e
00000130: 9a40 0c3e 3dbf 4f3e e0e4 3a3e 72e2 ea3d
00000140: 8301 5f3d be65 9e3d b11c 293e 77bf 0d3e
00000150: a952 313e bb9c ab3d cd5b 393e 4582 233e
00000160: 5ef5 003e 329e 823d 196e f63c 5f5b 213e
00000170: d971 2f3e aa95 cf3e 8aff 333e ea4f 363e
00000180: 71b4 a73e 33b1 f73d 57ec d13d 0a57 d93d
00000190: 1633 4b3e 80d6 9d3e b4f2 9a3d 6cc9 713e
000001a0: daff 153e 6058 fa3c 7e41 153d d48d b63d
000001b0: 6d2f 6f3e 8f4f 523d 3620 693e f8cd 733e
000001c0: 533d 1c3e 0c23 af3d d36c 5d3d 4976 bd3d
000001d0: 00f5 263e 4ed9 0f3e 0c84 893e 1abe 143e
000001e0: ac71 b03d 104b d83e d648 b73d 2c59 d33d
000001f0: 6ebc 873d 3398 933d b3c4 533e 4e4e dd3d

fc2.weight f4 [128, 132]
-0.032072607 0.13621472 -0.20806807 -0.09330758 -0.05291638 0.14067805 0.0028688645 -0.10588448
0.0010713084 0.01048953 -0.11775711 0.05316074 -0.10472497 0.044883654 -0.08181425 0.037242927
0.03926388 -0.08542594 0.036036573 -0.119513296 -0.06624807 0.054847557 -0.13923636 -0.03947036
-0.01003435 0.032184906 -0.027153267 -0.029454527 0.0210937 0.01796075 0.042152517 -0.02030895
0.044571605 -0.19643193 0.078365676 -0.0062369155 -0.119132996 -0.013535077 -0.06935185 0.0660272
0.09600946 -0.10773251 0.045831636 0.061682165 0.04153989 0.052912395 0.09968431 -0.05010494
-0.11356429 0.15983845 0.0001710047 -0.12685245 -0.022520628 0.06979172 -0.04560234 -0.19490828
-0.060463298 0.0133003 -0.1052004 0.057232313 -0.037751235 -0.09043278 -0.097922884 -0.031245487
-0.009538987 0.029048573 -0.08874424 0.113191195 0.018388513 -0.16652746 0.10059784 0.14428177
-0.1398221 -0.09458567 -0.15214464 0.011190785 0.18909985 0.07624448 0.0380049 -0.029672597
0.101691276 -0.124760635 0.042937044 -0.035047706 -0.114157654 -0.07427481 0.07384466 0.027492208
-0.02742516 -0.20502825 0.021860378 0.09164688 -0.14655091 -0.13286263 0.018448267 -0.10843053
-0.033820186 -0.0031296082 0.06304263 0.120812856 -0.035654176 -0.15658882 0.06647482 -0.00053666654
-0.18263055 -0.107659675 -0.2535603 0.13534667 0.028487219 0.083050154 0.0900191 -0.04737642
-0.0381795 0.06399143 -0.008406475 -0.16335227 0.09619776 0.16472207 -0.010026843 0.041814648
-0.16385189 -0.010831458 -0.06818198 0.045460787 0.022114353 -0.071450695 -0.1807283 0.029655587
0.034116343 -0.027878141 0.019241372 -0.018127048 0.036594704 -0.0017967948 -0.120921984 -0.033159025
0.060148407 -0.10248292 -0.0708005 0.12790227 0.08953569 -0.21061125 -0.016186683 -0.08968853
-0.016491223 0.055075664 -0.014337498 -0.11170698 0.14034753 0.021303128 0.06512646 0.06110383
-0.060834557 -0.008910058 -0.074407175 0.017782945 0.12835637 0.038910218 0.08285738 0.11763398
0.013462076 0.0049710055 0.01870276 -0.048059385 -0.089477286 -0.06384116 0.119611524 -0.09276928
-0.16813898 0.11178313 0.03326334 0.0060044643 -0.13882601 0.02058333 -0.15672503 -0.03492527
0.2548178 -0.15470438 0.04587276 -0.10508659 0.07612067 0.0038644136 -0.009334637 -0.06168073
-0.118785076 -0.08693538 -0.091736645 -0.10348316 -0.06567736 0.18104753 0.16231485 -0.0065244087
0.040880095 -0.027624106 0.039831597 0.060813636 0.029995821 -0.0075418763 -0.090734646 -0.05985951
-0.030507261 -0.077041626 -0.019953063 0.15500326 -0.115184434 0.069305025 0.07992838 0.041051887
-0.107709505 -0.08922698 -0.018263778 0.04206734 0.17449366 0.14934975 0.051047534 -0.0010924273
-0.0048042466 -0.111036606 0.0365274 -0.10918842 -0.16261622 -0.06890691 -0.010717878 0.031022472
0.007988731 0.069409706 0.016471649 0.014223694 0.016117975 -0.04377451 0.046994284 0.029689308
0.024080856 -0.011912973 -0.032314673 0.095426634 -0.12235666 -0.035390124 -0.016848987 0.14117607
0.004583072 0.13444851 -0.08764599 -0.009606985 0.044498418 0.007486583 -0.07361164 -0.062706485
0.070952214 0.139944 0.16901381 0.0964904 -0.051510777 0.15004486 -0.015485291 -0.0632508
00000000: 915e 03bd df7b 0b3e cc0f 55be 0b18 bfbd
00000010: d9be 58bd e80d 103e 8f03 3c3b f6d9 d8bd
00000020: 256b 8c3a 47dc 2b3c a42a f1bd 13bf 593d
00000030: 0c7a d6bd ecd7 373d 3b8e a7bd 0a8c 183d
00000040: 2ad3 203d ccf3 aebd 169b 133d 63c3 f4bd
00000050: 11ad 87bd d5a7 603d fa93 0ebe acab 21bd
00000060: 1d67 24bc 52d4 033d 8770 debc 9f4a f1bc
00000070: b2cc ac3c 6c22 933c 1ea8 2c3d f55e a6bc
00000080: b790 363d 7425 49be 2f7e a03d 0a5f ccbb
00000090: 00fc f3bd 3ac2 5dbc 5808 8ebd 4539 873d
000000a0: 9ca0 c43d dda2 dcbd f4b9 3b3d 70a6 7c3d
000000b0: bb25 2a3d abba 583d 4a27 cc3d d63a 4dbd
000000c0: 6594 e8bd b1ac 233e ba4f 3339 9ce5 01be
000000d0: 2e7d b8bc f6ee 8e3d 85c9 3abd 0996 47be
000000e0: 5da8 77bd 80e9 593c 4f73 d7bd 6e6c 6a3d
000000f0: 0aa1 1abd d234 b9bd cb8b c8bd 89f6 ffbc
00000100: 6949 1cbc 46f7 ed3c 8abf b5bd c9d0 e73d
00000110: 82a3 963c 2d86 2abe 3e06 ce3d 9abe 133e
00000120: 862d 0fbe 22b6 c1bd cecb 1bbe 8e59 373c
00000130: 64a3 413e 1126 9c3d 07ab 1b3d f213 f3bc
00000140: 8443 d03d 8182 ffbd c1de 2f3d 2f8e 0fbd
00000150: 7dcb e9bd 641d 98bd de3b 973d 5737 e13c
00000160: bbaa e0bc edf2 51be 8914 b33c 5cb1 bb3d
00000170: 7111 16be 240d 08be d220 973c d310 debd
00000180: 0987 0abd 1d1a 4dbb 7f1c 813d bb6c f73d
00000190: 1d0a 12bd d258 20be f323 883d 15af 0cba
000001a0: 8103 3bbe ad7c dcbd a8d2 81be 5198 0a3e
000001b0: 075e e93c 3316 aa3d ef5b b83d c70d 42bd
000001c0: 1b62 1cbd f00d 833d 50bb 09bc d145 27be
000001d0: 5503 c53d e7ac 283e a147 24bc d645 2b3d
000001e0: cac8 27be 6d76 31bc fea2 8bbd 1735 3a3d
000001f0: 2929 b53c be54 92bd d710 39be 46f0 f23c
00000200: 94bd 0b3d b360 e4bc 15a0 9d3c 2d7f 94bc
00000210: 54e4 153d 6e82 ebba f2a5 f7bd c2d1 07bd
00000220: 2d5e 763d 91e2 d1bd daff 90bd d0f8 023e
00000230: 7d5e b73d 7aaa 57be ef99 84bc 9fae b7bd
00000240: 9a18 87bc 0597 613d d3e7 6abc a1c6 e4bd
00000250: 43b7 0f3e e683 ae3c 0561 853d 0248 7a3d
00000260: a82d 79bd 7efb 11bc ca62 98bd 8aad 913c
00000270: da6f 033e 5260 1f3d 21b1 a93d 16ea f03d
00000280: 0a90 5c3c d1e3 a23b 8836 993c ebd9 44bd
00000290: de3f b7bd 27bf 82bd e3f6 f43d d2fd bdbd
000002a0: a02c 2cbe 8eee e43d 243f 083d 19c1 c43b
000002b0: 6828 0ebe 5f9e a83c 877c 20be cd0d 0fbd
000002c0: 7b77 823e d36a 1ebe 13e5 3b3d a337 d7bd
000002d0: 27e5 9b3d 1a42 7d3b 4ef0 18bc efa4 7cbd
000002e0: 9745 f3bd 2d0b b2bd 6ce0 bbbd fbee d3bd
000002f0: da81 86bd 8664 393e dd35 263e b5ca d5bb
00000300: e371 273d f34b e2bc 7526 233d b817 793d
00000310: ccb9 f53c d821 f7bb 16d3 b9bd 3f2f 75bd
00000320: 5dea f9bc 00c8 9dbd 9b74 a3bc 2db9 1e3e
00000330: d1e5 ebbd cbef 8d3d 7eb1 a33d 0626 283d
00000340: cd96 dcbd a3bc b6bd eb9d 95bc ce4e 2c3d
00000350: 77ae 323e 24ef 183e 3817 513d c72f 8fba
00000360: f16c 9dbb 2967 e3bd c19d 153d 2e9e dfbd
00000370: de84 26be 111f 8dbd 0a9a 2fbc d722 fe3c
00000380: 2be3 023c ad26 8e3d 8def 863c 7f0a 693c
00000390: d809 843c e74c 33bd 147d 403d fe36 f33c
000003a0: 3745 c53c a12e 43bc 645c 04bd 0a6f c33d
000003b0: 2196 fabd 3cf5 10bd e306 8abc 7690 103e
000003c0: 982d 963b dfac 093e be7f b3bd 9e66 1dbc
000003d0: f943 363d 0352 f53b b3c1 96bd 426c 80bd
000003e0: 654f 913d 7b4d 0f3e f511 2d3e c29c c53d
000003f0: f7fc 52bd 5ca5 193e 05b6 7dbc a389 81bd

fc2.bias f4 [128]
-0.10616223 -0.2503719 0.14540231 -0.012685221 -0.18697003 -0.38343987 0.073218375 0.006620864
-0.27809992 -0.1020942 0.018127168 -0.31780183 0.22579816 0.016139643 -0.32640165 -0.26511818
0.029315341 0.028915746 -0.35370585 -0.30118164 -0.14797719 -0.03374529 -0.04062996 -0.28330296
-0.21896845 0.062026665 -0.26921162 -0.2568357 -0.2895933 0.014225394 -0.13051756 0.16844395
-0.13526303 0.06173745 0.13972396 -0.14922357 -0.21957958 0.1016474 -0.18451507 -0.27967334
-0.2162356 -0.0012174716 -0.21353875 -0.20595159 0.13587436 0.2071344 -0.2629996 -0.29035124
-0.1400672 -0.13360576 -0.26230893 -0.25512454 -0.059484374 -0.20078218 -0.07188842 0.0072017023
-0.07567099 -0.24297012 0.040480442 -0.07409138 -0.3047476 -0.3191713 -0.20143983 -0.34019274
0.13422413 -0.18600386 -0.12688242 0.049374215 -0.2132817 -0.26506326 0.013138406 0.07763359
0.22627658 -0.13683891 -0.22533508 -0.009082376 -0.043471128 0.0041569397 0.1121928 -0.2604162
-0.23305817 -0.23396005 -0.29103398 0.10781777 -0.3102415 -0.007185946 0.16067323 0.20878726
0.13128416 0.24642396 -0.18239033 0.29879937 -0.15263127 -0.17390086 -0.24405709 -0.29166454
-0.1559445 -0.19279386 0.048744738 -0.2987398 -0.2121923 0.14986758 -0.2860481 0.120111465
-0.27138424 -0.30940396 0.077026665 -0.11684968 -0.019108599 -0.27611637 0.13871183 0.07998495
0.13298 -0.33877864 0.08877899 0.02253213 -0.24796718 0.14766632 0.11606303 0.002069669
-0.24715964 0.15510435 -0.3121339 -0.31775135 -0.18794827 -0.19609758 -0.23329738 0.0021863345
00000000: 956b d9bd bf30 80be 58e4 143e acd5 4fbc
00000010: 1275 3fbe 3b52 c4be 84f3 953d d5f3 d83b
00000020: 1d63 8ebe c416 d1bd 6d7f 943c ecb6 a2be
00000030: a237 673e 4937 843c 1e1e a7be 92bd 87be
00000040: ba26 f03c b7e0 ec3c ef18 b5be 7b34 9abe
00000050: 5587 17be 8038 0abd 9a6b 26bd 160d 91be
00000060: 4439 60be ac0f 7e3d 1bd6 89be f87f 83be
00000070: 9345 94be a111 693c 65a6 05be 927c 2c3e
00000080: 6482 0abe 69e0 7c3d cc13 0f3e 10ce 18be
00000090: 78d9 60be 832c d03d 85f1 3cbe 5831 8fbe
000000a0: dd6c 5dbe 9193 9fba e7a9 5abe f9e4 52be
000000b0: a622 0b3e 0a1b 543e e2a7 86be eba8 94be
000000c0: c76d 0fbe f3cf 08be 5b4d 86be af9f 82be
000000d0: e3a5 73bd d899 4dbe 3c3a 93bd 42fc eb3b
000000e0: 64f9 9abd 29cd 78be d2ce 253d 39bd 97bd
000000f0: e107 9cbe 6c6a a3be 3e46 4ebe be2d aebe
00000100: 0d72 093e cc77 3ebe 77ed 01be 9e3c 4a3d
00000110: 8566 5abe 5fb6 87be 7842 573c 5cfe 9e3d
00000120: 0cb5 673e 801f 0cbe 3dbe 66be 3fce 14bc
00000130: c80e 32bd f036 883b 57c5 e53d 4655 85be
00000140: cda6 6ebe 3993 6fbe 6802 95be 90cf dc3d
00000150: f9d7 9ebe 1678 ebbb 8687 243e 54cc 553e
00000160: 5b6f 063e 9056 7c3e 88c4 3abe 3bfc 983e
00000170: 5f4b 1cbe 1113 32be 1aea 79be 0e55 95be
00000180: eaaf 1fbe c16b 45be 90a8 473d 6cf4 98be
00000190: f048 59be e376 193e e674 92be 00fd f53d
000001a0: e0f2 8abe 326a 9ebe 28c0 9d3d e34e efbd
000001b0: a389 9cbc 205f 8dbe 790a 0e3e 26cf a33d
000001c0: e92b 083e 6574 adbe c2d1 b53d 4d95 b83c
000001d0: 1ceb 7dbe d735 173e 74b2 ed3d 49a3 073b
000001e0: 6b17 7dbe add3 1e3e 04d0 9fbe 4eb0 a2be
000001f0: 8375 40be cecd 48be 82e5 6ebe 9b48 0f3b

fc3.weight f4 [1, 128]
-0.066561855 -0.068450734 0.057370838 0.05808156 -0.10352953 -0.1556801 0.05174354 0.07530559
-0.065296866 -0.0584121 0.11576383 -0.056053955 0.061174136 0.050642673 -0.12882054 -0.08254455
0.08071421 0.07438303 -0.10099825 -0.080870666 0.079240546 0.053979415 0.05674498 -0.106724806
-0.06501299 0.050295494 -0.13563381 -0.12959091 -0.07059436 0.055226635 0.08395999 0.057016518
0.08641189 0.060192283 0.068823166 -0.0572198 0.07032312 0.1045541 0.15986882 -0.08039551
-0.07551284 0.07227588 -0.05546058 -0.068349615 0.068485945 0.055594467 -0.09532746 -0.084546834
-0.07081967 -0.045884874 -0.06563666 -0.09048838 0.059898917 -0.05311868 0.051359158 0.105206855
0.061428115 -0.073218174 0.08643372 -0.052234706 -0.07768449 -0.06887608 -0.07610719 -0.118649185
0.0792975 -0.03402257 -0.09914012 0.07861455 -0.08718487 -0.073968746 0.06379174 0.07604771
0.06521819 -0.041663233 -0.069118865 0.040938735 0.13147153 0.08255639 0.0586871 -0.17825331
-0.13913368 -0.08224432 -0.119754575 0.04880168 -0.055796247 0.08686074 0.061198786 0.051961146
0.07065431 0.060420427 -0.08373835 0.05980611 -0.06423996 -0.076863244 -0.0523101 0.19196905
-0.055814665 -0.06260683 0.07263742 -0.051662937 -0.06729731 0.0639533 -0.09286042 0.0643612
0.22492215 0.13114351 0.053542435 0.1159718 0.055775054 -0.072028704 0.07736249 0.057147488
0.072891414 -0.13322692 0.05887128 0.058648847 -0.12010224 0.052311447 0.054619923 0.07685921
-0.07924779 0.05450126 -0.07868181 -0.11811156 -0.055291217 -0.049661156 -0.057921402 0.097210854
00000000: 9551 88bd e62f 8cbd affd 6a3d eee6 6d3d
00000010: 4a07 d4bd 9b6a 1fbe 09f1 533d d139 9a3d
00000020: 5dba 85bd 8741 6fbd 9615 ed3d d598 65bd
00000030: bb91 7a3d b16e 4f3d 88e9 03be 1e0d a9bd
00000040: 7e4d a53d 2156 983d 2cd8 cebd 859f a5bd
00000050: de48 a23d 8519 5d3d 6d6d 683d 8992 dabd
00000060: 8825 85bd a602 4e3d 97e3 0abe 7bb3 04be
00000070: c793 90bd 5335 623d 37f3 ab3d 278a 693d
00000080: b8f8 b03d 2f8c 763d 29f3 8c3d 4f5f 6abd
00000090: 9105 903d 7620 d63d a7b4 233e 67a6 a4bd
000000a0: 7aa6 9abd 6005 943d a22a 63bd e2fa 8bbd
000000b0: 5c42 8c3d 06b7 633d 0b3b c3bd e426 adbd
000000c0: e709 91bd c7f1 3bbd 836c 86bd f951 b9bd
000000d0: 9158 753d f992 59bd fb5d 523d b176 d73d
000000e0: 0c9c 7b3d 69f3 95bd 2a04 b13d 0ff4 55bd
000000f0: 0c19 9fbd e70e 8dbd 16de 9bbd 58fe f2bd
00000100: ba66 a23d 405b 0bbd fa09 cbbd aa00 a13d
00000110: fb8d b2bd ed7c 97bd 3ea5 823d e7be 9b3d
00000120: 1d91 853d 11a7 2abd 318e 8dbd 60af 273d
00000130: 79a0 063e 5313 a93d e261 703d 0988 36be
00000140: 0f79 0ebe b66f a8bd e341 f5bd 45e4 473d
00000150: 9b8a 64bd 0be4 b13d 94ab 7a3d 36d5 543d
00000160: 35b3 903d 697b 773d 037f abbd 40f7 743d
00000170: 3d90 83bd 7a6a 9dbd 1e43 56bd 8993 443e
00000180: eb9d 64bd 0238 80bd edc2 943d 849c 53bd
00000190: 2cd3 89bd f3f9 823d 9b2d bebd cecf 833d
000001a0: fe51 663e 7c4a 063e 504f 5b3d a082 ed3d
000001b0: 6274 643d c983 93bd 3a70 9e3d 7c13 6a3d
000001c0: 1848 953d a36c 08be 0323 713d c639 703d
000001d0: 2af8 f5bd 8744 563d 24b9 5f3d 5d68 9d3d
000001e0: aa4c a2bd b73c 5f3d ee23 a1bd 79e4 f1bd
000001f0: 0b79 62bd 7f69 4bbd fe3e 6dbd 7c16 c73d
